model/RNN_Predictor1.pt (torch, 107064 bytes, 78 tensors)

rnn.weight_ih_l0 f4 [24, 12]
00000000: 951e 993c c14f e73b ff6d bb3d 93a8 38bd
00000010: cbf9 1dbe 67b0 333b bfec 463d 1b68 57be
00000020: 2f94 03bd 9fa9 0c3e 0708 c8bc 971a 30be
00000030: 5c44 c2bd a6a2 9bbd 29c6 6f3b 7728 053e
00000040: 21df 0c3e 92f2 b5bd a6bf 0d3e 261f 763a
00000050: 2d6d 8b3c 4a77 4e3e 9fc6 62be 2eec aa3c
00000060: a89c 2bbe 89f3 3f3e 04cf f0bd 3a97 0a3b
00000070: c986 843d 7278 113c cf8e 40bd 125c 893e
00000080: be50 b4bb f955 dfbd a60c 883d 7610 e4bd
00000090: b6d5 e93d 099d 06bd 3a71 513e e421 d4bd
000000a0: 3deb 56be 5ebf 713d e75a 20be de48 6bbd
000000b0: fb0d a73d eee2 2e3e 4d25 4ebe 438a 353e
000000c0: b90f 2d3e 5e6f f6bd cac7 52be 24c0 ee3d
000000d0: 7b27 963d 50f8 8ebd 155f 3fbe 1f0c 553e
000000e0: 5d50 053e 9e6f 2cbe e185 f1bd 79b8 9dbd
000000f0: 21c1 0f3e 92ad 5bbd f686 adbd 3104 00be
00000100: cb74 3a3e ffbc b23d 1ea1 cd3c 9bf2 343d
00000110: 60ec 2e3c 3dcf 16be e1df 11bd 8752 393d
00000120: 2ae6 b53c e88c 823b 90f9 f9bd ca25 413e
00000130: bee8 92be eef1 49be 946a 49bd 541f 2bbe
00000140: 83ef 43be abc8 6b3e 6a16 4f3d 2bc6 b03d
00000150: 6395 37bd 4303 a3bd 99da 643d f7ec e73d
00000160: f5ff 0a3e 0027 a7bd 8956 15be bcba 263d
00000170: d1f7 183e ec19 7fbc 62ba 193c 5bd7 573e
00000180: 5133 48be f94b c9bd 4390 6d3b a59c 533d
00000190: a6b3 2fbe a045 283e 9444 5cbd 01b5 1e3e
000001a0: de43 0bbe 4728 4ebd dae1 123e c952 383e
000001b0: 06b4 12be 68c9 88bd 9d4e 8bbb bc49 0ebe
000001c0: 96c3 703d 699f bc3d 2239 a43d 34d2 dfbd
000001d0: eed3 1cbd 356e 8ebd c5b6 fabd 3b84 2c3e
000001e0: f3f6 673c 51d8 553e 4744 053c aa61 42bd
000001f0: 4ca3 8abc c11e ce3d 5715 273e 43be 0c3e
00000200: ccd8 463b 59b7 c03d 1ba0 413e f7b3 1ebe
00000210: d857 bb3d abda 9b3d 21cc 9fbd e1c7 a83d
00000220: 6b5f 453e 4ec3 37be 1702 08be d236 9c3d
00000230: 8589 1b3e 6951 d93c f995 0b3d 1817 463d
00000240: c7eb 04bd a830 223e 9e3b 2b3e fa2d 5dbe
00000250: 1214 35be bd69 ea3d 4b52 3c3e fd56 f0bd
00000260: b907 35bd 3ca9 5cbe f6db 83bd bad2 eb3d
00000270: 032b 65be d934 733d a324 203d f452 edbd
00000280: 2c1f 243e 5082 11be 1c4e c63d 35d8 e03c
00000290: 7808 593c a3ff 22be 482b 24bd c996 f03b
000002a0: 7dee 0d3e 6145 b43d a402 64be 3db5 45be
000002b0: 0f0f 423d 3455 5d3d 3b32 3f3e 58dd 1abd
000002c0: 18eb 26be 196e d6bd 905f 56bd 3cc1 99bd
000002d0: 6dd2 febd 033c 1cbe b2ba 22bd ee74 573d
000002e0: af80 5e3e d742 1cbe 8b9a 51be 0f30 2d3c
000002f0: d30e ae3d 92bb c8bc 78e4 703e aa08 d83a
00000300: b62c 85bc f3d5 96bd ce4f 20be bc9d 27be
00000310: 3283 5dbd 4332 0cbe 264b 55be 575b ff3d
00000320: 776b 47be 1fed 07be 671f 6ebd 3f7b d33d
00000330: 7fec 32bb 0d40 85bd af85 223e 122b 1cbe
00000340: 6bd1 453e 93ec d7bc 493c 27bd bd3c 3b3e
00000350: 1e73 ddbc 0b71 d0bc fc7f bcbd 5cce c93d
00000360: 802e 323e 3cbf a9bd 4488 113e 917d b3bd
00000370: 85d5 103e bd2c cb3d 516b ad3d 550d d8bd
00000380: 483d 0e3e 78b0 0a3e 5837 f3bd caec e2bd
00000390: c3de 01bd cdbb 743e 0076 76be 7c8e f93d
000003a0: 20f3 88be 276f 103e 2410 203d 7afc 4f3e
000003b0: 8a17 65be dc51 2c3d 59fa 893c cfbd ab3d
000003c0: 4a9f 2fbe caa8 453d 26bc b13d 513c d1bc
000003d0: db0d 373e a63b 89bd ba70 70bb ada5 9e3d
000003e0: 23d0 053e 11ae 293e 7cab 283e 46e6 78bd
000003f0: cc36 3dbc c4a3 78be 0adf ecbd 5175 c4bd
0.01869134 0.007059068 0.091518395 -0.04508264 -0.1542732 0.0027418376 0.048565622 -0.21035807
-0.03212374 0.1373658 -0.02441789 -0.17197643 -0.09485695 -0.07599382 0.0036586619 0.13003717
0.13756992 -0.08884157 0.1384264 0.0009388797 0.017019833 0.20162693 -0.2214608 0.020864572
-0.16758978 0.18745245 -0.11758235 0.0021147267 0.06471021 0.008878814 -0.047011193 0.26828057
-0.0055027893 -0.1090507 0.066430375 -0.11135952 0.11417715 -0.032864604 0.20453349 -0.103580266
-0.20988174 0.059020393 -0.15659676 -0.05744254 0.081569634 0.17078754 -0.20131417 0.17728524
0.16900529 -0.1203296 -0.20584026 0.11657742 0.07331749 -0.069809556 -0.18688615 0.20805405
0.13018937 -0.16839454 -0.117931135 -0.07701201 0.14038517 -0.053632326 -0.084730074 -0.12501599
0.18208615 0.087274544 0.02510124 0.04417668 0.010676473 -0.14727493 -0.0356139 0.04524472
0.022204477 0.0039840825 -0.122058034 0.18862072 -0.28693193 -0.19721195 -0.049173906 -0.1671117
-0.19134335 0.23025768 0.050558485 0.086315475 -0.0448202 -0.079596065 0.055872533 0.11324494
0.13574202 -0.081617355 -0.14583792 0.040705428 0.14938284 -0.015570145 0.009382816 0.21078245
-0.19550826 -0.09828944 0.0036249317 0.05166306 -0.17158374 0.1643281 -0.05377634 0.15498735
-0.13600108 -0.05033138 0.14343968 0.1800033 -0.14326486 -0.0667904 -0.004251315 -0.13895315
0.058780275 0.092100926 0.0801871 -0.10928765 -0.03828805 -0.06954614 -0.12241892 0.16847317
0.014157998 0.208833 0.008133954 -0.04745642 -0.01692357 0.100644596 0.16316734 0.13744454
0.0030341623 0.09409971 0.18908732 -0.15498339 0.09147614 0.07610067 -0.078026064 0.08241249
0.1927468 -0.17945597 -0.13282047 0.07627644 0.15189178 0.026528077 0.034078572 0.048361868
-0.032451417 0.15838873 0.16721961 -0.2159957 -0.17683437 0.11445949 0.18390767 -0.11735342
-0.044196818 -0.21548933 -0.064384386 0.11514802 -0.22379689 0.05937657 0.03909744 -0.11588088
0.16027516 -0.14209867 0.09682867 0.027446846 0.013246648 -0.1591783 -0.04008034 0.0073421937
0.13860507 0.088022955 -0.22266632 -0.19307418 0.047377642 0.054036334 0.18671505 -0.037808746
-0.16300619 -0.10470218 -0.05233723 -0.0750756 -0.12442479 -0.15257268 -0.039728828 0.052601747
0.21728776 -0.15259872 -0.2046911 0.01057054 0.08498921 -0.024503503 0.23524654 0.0016482074
-0.016256671 -0.07365026 -0.15655443 -0.16368765 -0.054080196 -0.13691048 -0.20829448 0.124685936
-0.19474588 -0.13274048 -0.058135416 0.10326242 -0.0027301607 -0.06506357 0.15871309 -0.15250805
0.19318168 -0.026357925 -0.040828977 0.18284889 -0.027032431 -0.025444528 -0.092040986 0.09853813
0.17400551 -0.08288428 0.14212137 -0.08764184 0.14143951 0.099206425 0.084677346 -0.10549418
0.13890564 0.1354388 -0.1187579 -0.1108032 -0.031706583 0.23899765 -0.24068451 0.1218538
-0.2674799 0.14104901 0.039077893 0.20311156 -0.2237226 0.042070255 0.016843008 0.083858125
-0.17150608 0.048256673 0.086784646 -0.025541456 0.17876379 -0.0670083 -0.0036688284 0.07746444
0.13067679 0.16570307 0.16471666 -0.06076648 -0.011548709 -0.24281222 -0.11565979 -0.09592689

rnn.weight_hh_l0 f4 [24, 24]
00000000: eed8 33bd f08b bebd f3cc eb3d 86f7 163e
00000010: 5da3 6c3d d490 3e3e 49f5 6fbe d47f 0e3d
00000020: 8a5e 4b3d 370e 10be d776 78bc bb4a 183e
00000030: 21fc e7bd ffb2 0f3e c7fe 98bd b8d7 b43d
00000040: 77a7 a4bd 1af9 67bd a8a2 d9bb b304 0fbe
00000050: e933 d23c 8fb3 f53d 16b2 c3bd 8716 2fbd
00000060: 2f6b 58bd 1349 053e 745a d9bb eb39 ef3d
00000070: fea4 38bd 01fe 00be c742 0a3e 02d7 3fbe
00000080: 69aa 723d 8bed f13d 2c32 153e 324d f83d
00000090: 4250 dabd 5c5c fdbd c070 0e3e 7bc4 a13d
000000a0: 2676 0a3d b832 59be 3a8b 533e 3117 ef3d
000000b0: 30f7 eabd f98b e73d 46f0 be3d 5275 acbc
000000c0: de88 693d 6a42 163e 7c35 fbbb 3640 033e
000000d0: 08bb e23d e00c bbbd ee14 f53d b5df 4fbe
000000e0: d590 ee3d 985b 4ebe 95df d43d 26f7 903d
000000f0: 1be0 203e 37ee 4abe 8ada cf3d df46 27be
00000100: 368c 25be f813 b3bd 348b 503e 4cee c63d
00000110: b0b7 6dbe 228b d1bc d267 0e3e 2a42 63bd
00000120: 224c 37bd 173a 583e dd5e 4e3d 7f7b 9c3d
00000130: 2ea1 babd 954c fc3d 93ef 3abe 52a5 7a3d
00000140: 0134 23be 4c2d 2fbe 4dfd f4bb 4043 9c3d
00000150: 6342 3ebe d59c f33d be70 ab3d 089c 633e
00000160: eb7b 33be c27b 1cbe 38bf 8c3d 09ac e8bd
00000170: 3900 6b3c 6f45 0dbe 54b2 36be 46cc 4fbe
00000180: 2003 a63d 7232 1e3e 98f9 68bd 9460 18be
00000190: 70b0 07be 77b5 4c3e 073d 023d 8de1 22be
000001a0: f07c 68be 05d8 23be a866 283c f1a2 f0bd
000001b0: f382 4fba 9855 6e3c 9f03 133d 6a22 34be
000001c0: e860 b33d 8ec0 1ebe ae4e 153e 4be3 94bc
000001d0: d8aa 3b3e 9410 293d 240e 943d f812 3f3d
000001e0: af03 96bd 10d9 4bbe c097 b2bd 820e 2cbd
000001f0: de30 f3bc 7fef 8a3c 110a bbbc 64c5 4f3e
00000200: 024a 123e 637e 59bd 8664 de3d b043 a73d
00000210: 63d0 2d3e b33e efbd 1ced 953d fc63 51bd
00000220: cf30 d9bd 3766 013d 9a9b 0a3e 6818 2e3c
00000230: f8c0 14bc b0f0 1e3e 2db5 2cbe b9be ef3d
00000240: 9282 363d e33f 0cbe cad9 9f3d 3f1b f53d
00000250: 2e88 15bd 37b0 3c3d e2aa 41bd aec6 00be
00000260: a172 0abe 4477 8e3d 5e70 c33d 53d8 43be
00000270: 1ddd 873c 80db 463e b527 4cbe 9eec 0abe
00000280: 4051 113e 8660 e73d 046c 1cbe ad34 84bd
00000290: 6c75 a43d 08dd f3bd fc01 c4bd 53b1 0c3d
000002a0: cd16 8a3d 912c 113e 8f31 8cbd 8bb3 3d3e
000002b0: 0efb b63d e379 e4bd 518f 4e3e 7ebc cdbd
000002c0: 2a27 aebc 62af a6bd 39de a73c 60df 3fbc
000002d0: b00d 37be ac82 f0bd e1bf a0bb 3e51 033e
000002e0: 9ab7 24be 4907 4e3d a681 613d 3259 e4bd
000002f0: 840f 06be 3e7f d03d 8f38 073e 88fd 1abe
00000300: 8b67 b83d 7588 ed3b d4c4 523e c578 e13c
00000310: d88c 01bd 7ad8 8c3d 473d 683d f992 7e3d
00000320: c38e c33d 1a84 873d ecd7 11bd 3b5a c9bd
00000330: c834 533d ede8 3cbd 86cd 9a3d cf89 0ebd
00000340: 2ce6 36be 6dee 46be 3a1b 153e fd6f fd3d
00000350: 35d0 343e 16cc 41be 39a7 1a3d 638c 3fbe
00000360: d35e 36be 835e 0cbd 6a34 243e 0917 a53d
00000370: 0434 2e3e fe83 01bd 5319 103e 036a a2bc
00000380: adff 543e d407 1bbd 4ce6 2e3e e1a1 b53d
00000390: f2bc 3cbe 741f 08be 9bf5 06be 8123 b6bd
000003a0: bccf 10be 5d0a 6ebd 3ef1 053e e5e5 373e
000003b0: 4119 17bd 2bfd 5d3d 0c05 32be f7af bbbd
000003c0: ba2d 523e 81b5 973d 16e2 51be 3c19 bd3d
000003d0: f434 b33d 8b09 10bd 3950 273e eb0c 42bd
000003e0: 9393 203d 807b c5bd 6985 443e 44d9 d93d
000003f0: 7280 afbd c1cb 07be 4584 373e 1d82 c3bd
-0.043908052 -0.09304035 0.115137 0.1474286 0.057772983 0.18609935 -0.23433413 0.034789875
0.049650706 -0.14067923 -0.015165052 0.14872257 -0.11327387 0.14033125 -0.0747047 0.088302076
-0.08039754 -0.056634046 -0.0066417046 -0.13966636 0.025659518 0.11997139 -0.095554516 -0.042746093
-0.052836593 0.13016157 -0.0066330973 0.11680969 -0.045079224 -0.12596895 0.13502036 -0.18734363
0.059244547 0.11812886 0.1456992 0.12124099 -0.10659839 -0.12371132 0.13910198 0.07898804
0.03380408 -0.21210754 0.2065858 0.11674345 -0.114729285 0.113059945 0.09323172 -0.021052036
0.057015292 0.14673772 -0.007666288 0.12817463 0.1107083 -0.09133315 0.11966883 -0.20300181
0.11648718 -0.20152128 0.103942074 0.0707839 0.1571049 -0.19817434 0.10149105 -0.16335629
-0.16166767 -0.08744043 0.20365602 0.0971342 -0.23214602 -0.025579039 0.13906792 -0.05548302
-0.04475034 0.2111591 0.050383437 0.076407425 -0.09112774 0.12319294 -0.18255453 0.061192818
-0.15937807 -0.17107123 -0.007476485 0.076300144 -0.18580012 0.11895148 0.08371113 0.2222749
-0.1752774 -0.15281585 0.068724096 -0.11360938 0.014343315 -0.13796018 -0.17841464 -0.20292768
0.08106065 0.15448931 -0.056878656 -0.14880592 -0.132509 0.19991098 0.03179648 -0.15906353
-0.2270391 -0.16000374 0.010278381 -0.117498286 -0.00079159363 0.014546774 0.035892125 -0.17591253
0.08758718 -0.15503141 0.14580795 -0.018174788 0.1832689 0.041275576 0.072292596 0.04664895
-0.07324921 -0.19907022 -0.0872035 -0.042006023 -0.029686388 0.016959904 -0.022831948 0.20290142
0.14286044 -0.053099047 0.10859017 0.08167207 0.16974024 -0.11681881 0.07320616 -0.051120743
-0.106050126 0.03159162 0.1353592 0.010625936 -0.00907921 0.15521502 -0.16865988 0.11706299
0.044558115 -0.13696246 0.07805212 0.119680874 -0.036506824 0.04606649 -0.047282107 -0.1257579
-0.1352029 0.06956342 0.09542917 -0.1912549 0.016584927 0.1941967 -0.19937022 -0.13566825
0.1419115 0.11297707 -0.1527558 -0.064553596 0.08030209 -0.11907393 -0.09570691 0.034348797
0.0674263 0.14177157 -0.0684539 0.18525521 0.08934604 -0.111560605 0.20171858 -0.10045718
-0.02125891 -0.0813892 0.020491706 -0.011710972 -0.17876315 -0.11743674 -0.0049056862 0.1282396
-0.16085663 0.050299916 0.055055283 -0.11149825 -0.13091856 0.101805195 0.13205169 -0.15135777
0.09004124 0.007248933 0.20582896 0.027523408 -0.03162846 0.06877227 0.056699064 0.062151883
0.09548714 0.06616993 -0.03560631 -0.09831663 0.051564008 -0.046120573 0.07558732 -0.034799393
-0.17861241 -0.1942689 0.14561167 0.12374876 0.1765755 -0.18925509 0.037757132 -0.18705897
-0.1780961 -0.03426982 0.1603562 0.08061034 0.1701203 -0.03162002 0.1407216 -0.019825941
0.20800658 -0.037849262 0.17080039 0.088687666 -0.18431452 -0.13293248 -0.13179629 -0.088934906
-0.14141744 -0.058115352 0.13080308 0.17958792 -0.03688932 0.054196518 -0.17384738 -0.09164422
0.20525256 0.07407666 -0.20496401 0.09233329 0.087503344 -0.03516535 0.16339196 -0.0473756
0.039203238 -0.096426964 0.19191517 0.10637143 -0.08569421 -0.1326132 0.1792155 -0.095463015

rnn.bias_ih_l0 f4 [24]
00000000: 8503 e2bb ff9c 58bd 0ccf 293e 4d90 1a3e
00000010: 084e d7bd fadf 05be c904 8cb9 b441 2cbe
00000020: 4226 dfbd 6f89 f03d d7e4 44be da57 bc3d
00000030: 99dc 4d3e 57ee 9ebd 8c41 8e3d f954 bc3d
00000040: f763 0bbe e013 383e e89a f6bd f7ec 143e
00000050: 2fbe 48be aac3 cf3d be32 1abe bfd4 bc3d
-0.006897392 -0.0528841 0.16582888 0.15094109 -0.1051293 -0.13073722 -0.00026706446 -0.16821939
-0.10895969 0.117449634 -0.1922792 0.09196444 0.20103683 -0.077603035 0.06946096 0.09195895
-0.13612352 0.17976332 -0.12041265 0.1454352 -0.196038 0.10144742 -0.15058419 0.092202656

rnn.bias_hh_l0 f4 [24]
00000000: 1436 c5bc 2281 d7bb b6da 153e 0417 4fbe
00000010: 94a0 6dbc 5484 d93d 85cd 0f3d d716 4bbe
00000020: 96ca 043e 9e20 383d 0fe4 153e 2cff 1cbe
00000030: 4b40 943d 3396 a8bd 3ca4 143c 9c68 413d
00000040: 90b8 2bbc 0bc8 283e 9801 33b9 d2b3 36bc
00000050: 5f7d 303e cbce e33d 6dd7 523d 74f8 85bd
-0.024073638 -0.006576673 0.14634213 -0.20223624 -0.014503617 0.10620943 0.035108108 -0.19832931
0.12967905 0.04495298 0.14637779 -0.15331715 0.072388254 -0.08231773 0.00907236 0.047218904
-0.010481015 0.1648256 -0.00017071364 -0.011151271 0.17235325 0.11123427 0.051474977 -0.06541529

rnn.weight_ih_l1 f4 [24, 24]
00000000: 7476 453e 9a29 fe3d ee63 743d 8c13 943d
00000010: cb8b 4dbe 99f5 6fbe b007 6f3e f23f 12be
00000020: 2ae6 5cbe 0c64 32be ba46 dabd 3ca7 54be
00000030: b0d0 1bbe 4aa0 f1bc 0799 bb3d e398 023c
00000040: 62bc 43be 5ca9 68be 3079 a4bd 6fd0 57bd
00000050: f711 92bc b2c3 373e 72ff 4d3e 289a 64bd
00000060: 81ab 033e 1411 55be ca65 403e 9ab8 38bd
00000070: 8077 0a3e c15e 2f3e e60b 503d a39a 3e3e
00000080: 32d6 483d 0562 183e e34b 54be 6dbc e2bd
00000090: 8d2e 853d 8f1e 96bd 2d3c 233e 0160 c83d
000000a0: 11a6 e03d 6376 c83d 9c96 f03d 5c27 db3d
000000b0: 73f9 edbd 6b0b 693e 473b 553d 45dc 6e3e
000000c0: a294 923e 9102 35be 84b8 863d b342 91bd
000000d0: 6d50 0dbe 30e1 b2bd 13a5 f1bd 35c9 703d
000000e0: 7fc3 09bd 7ee5 e53d 5c57 603d 546f b33d
000000f0: fe2f 1fbe 48bf 26be 86e2 e8bc 8dfc e5bd
00000100: 26da 33be 3b6a 60bd 6f0d 5b3e c6dd 5ebe
00000110: ec8e ab3d d0c3 803e 6923 a43d a8f9 1cbe
00000120: 506d 5fbe aade 4dbe 71b0 553d 2239 5dbd
00000130: d9d8 49be d769 bf3d 6d32 9b3d 46eb 34bd
00000140: eb5f e3bc fe73 59be a87e 0bbe 231b e63d
00000150: 3589 63be 1927 0b3e 36ff 19be 288d 24bd
00000160: 96c1 17bc 925d 273e d0c8 d1bd f36a c4bd
00000170: 1733 043e 3984 643d a1c3 5ebc a12c d33d
00000180: 48cf 203e 3907 3abe a5bb a5bd 2188 e13d
00000190: 29c6 f93d 773a 2d3e c956 f1bd 2469 4ebe
000001a0: a869 6b3d 104a 66ba 4d64 523e 98c2 a8bd
000001b0: 2ac1 24be 7ca1 da3c 1c64 9cbc 1ccf 043d
000001c0: 7fe3 0b3b f58e f93d 8d66 cb3d 97b6 863e
000001d0: deab 423d d0e5 26be 75f7 6abd f6f0 3ebe
000001e0: 84bf a1bc 6bf7 40bd 305a 58be a43c c5bd
000001f0: 43a0 bf3d 3025 b4bd 51b7 233e a198 a8bd
00000200: b3fe dbbd e163 1f3c 5279 d53d 123a 44be
00000210: af0e 92bd 3797 843d bf93 213e 4a39 3cbe
00000220: e2b7 3fbe bd3e 0f3e 1532 27bd 6884 f4bc
00000230: fb84 f03d ae36 02be 1c07 783d f440 9a3d
00000240: 8106 71be 8054 b03d 64d2 af3d c958 043d
00000250: 5917 963d 5527 aa3b 329d b1bd 3093 2b3e
00000260: 8a4b eebd 2b58 d63d e4e9 4e3e 537d d1bc
00000270: c0b6 603d 4a96 243d 0cd5 aebd 25cf 91bc
00000280: cde0 c7bd ab4a 06be 4670 8f3d a29b 6a3e
00000290: dc51 1d3d c911 ba3d ddba 4c3e cea8 1d3e
000002a0: 66d0 3ebe e9af 493e d46d 903d 611a 813d
000002b0: f214 10be b4c5 2bbe c50c 243e 1c30 eabc
000002c0: 1f22 6e3e 8ab8 b0bd 9882 4dbd 9db0 e43d
000002d0: d7e8 033e 92a5 62bd ceb8 6abe d4e4 82bd
000002e0: 4995 abbd ac1f efbd 61ba 1e3e bb9d ddbd
000002f0: 539b f73c b609 b4bb 9510 ab3d 2c04 60bd
00000300: e633 e83d 4e09 203a 60f1 ccbc e0a3 093e
00000310: f425 e03c 1749 5dbe 10d7 353e 377a eabd
00000320: 831f 193d 2328 2abe 83fd 74bd e755 94ba
00000330: cd64 2a3e ef67 bebd b708 983d ec1a 63be
00000340: 388b 4dbe 0fc2 94bc 8ce4 fa3d b3c0 a5bd
00000350: 4bdd f83b 5d33 75be 29b1 e43d 309d 62be
00000360: dc78 e1bd 3e74 3ebe f4f7 cb3c bf95 4bbe
00000370: 8e75 f3bc a8c4 033e 4436 6fbc aba3 3f3e
00000380: 9e11 303e b287 bb3d 4914 4d3e 5460 003e
00000390: 5afe 923d d599 433e fccd 2ebb 2002 38bd
000003a0: 3a3c 02bd 7abd 2a3e 3c4a 8f3d b4b3 0dbd
000003b0: 5208 103e 39c3 14be 34e6 3dbe 1e19 c1bd
000003c0: 3ee4 953e 8e6a 723c 5bf7 1ebe e1ba 643e
000003d0: c5c8 7e3d 0751 ebbc 3dbd 213d f602 74bd
000003e0: 86a1 2dbd 3e24 073d 37ee 1d3c e4f3 7bbd
000003f0: 4df5 b4bc 9fe7 0cbe 10ab ec3d 620c d7bd
0.19283468 0.124102786 0.059665613 0.07230291 -0.20072858 -0.23433532 0.23342776 -0.14282206
-0.21572176 -0.17420977 -0.10658021 -0.2076692 -0.15216327 -0.029495377 0.09160047 0.007971021
-0.19114831 -0.22720855 -0.08030927 -0.052689012 -0.017830832 0.17945746 0.20116976 -0.055811077
0.12858392 -0.20807296 0.1878883 -0.045097925 0.13522148 0.1712599 0.050792597 0.18613677
0.049032398 0.14881141 -0.20732073 -0.110710956 0.065030195 -0.07330047 0.15940924 0.09783936
0.10969175 0.097882055 0.117474765 0.107008666 -0.11619844 0.22758262 0.052058484 0.23326214
0.28629023 -0.1767676 0.06578162 -0.070928 -0.13800211 -0.08734357 -0.117990635 0.058785636
-0.033633705 0.11225413 0.054770812 0.087614685 -0.15545651 -0.16283906 -0.028428327 -0.11229811
-0.17563686 -0.05478881 0.21391843 -0.21764287 0.083768696 0.25149393 0.080145665 -0.15329611
-0.21819043 -0.20104471 0.05217022 -0.054009564 -0.19711627 0.09346359 0.07577977 -0.044169687
-0.027755698 -0.21235654 -0.13622534 0.11235645 -0.22220309 0.13589133 -0.15038761 -0.04017368
-0.009262463 0.16344288 -0.1024338 -0.095907114 0.12910114 0.05579016 -0.013596446 0.10311247
0.15704072 -0.18166818 -0.08092431 0.11012293 0.12195999 0.16916834 -0.11784131 -0.20157295
0.05747381 -0.000878484 0.20546074 -0.08240241 -0.16089311 0.02668833 -0.019090705 0.032424077
0.0021345315 0.1218547 0.099316694 0.2631118 0.047527187 -0.16298604 -0.0573649 -0.18646607
-0.019744642 -0.047110956 -0.21128154 -0.09630707 0.09356739 -0.087961555 0.15987898 -0.08232237
-0.107419394 0.009728403 0.10423531 -0.19162777 -0.07131707 0.064741544 0.15779017 -0.18381229
-0.1872249 0.13988777 -0.040819246 -0.029848292 0.11744114 -0.12716171 0.060553655 0.0753192
-0.23537637 0.08609867 0.08585051 0.032311235 0.07328672 0.005192677 -0.08672561 0.16755366
-0.11635502 0.104660355 0.2020641 -0.025572455 0.054861784 0.04018239 -0.08536729 -0.01779897
-0.09759674 -0.13114421 0.07003836 0.22910932 0.038408145 0.090854235 0.19993158 0.15396425
-0.18634185 0.1969601 0.07052198 0.063038595 -0.1407049 -0.16774637 0.16020496 -0.028587393
0.23255204 -0.08628948 -0.050173372 0.11166499 0.1288179 -0.05533368 -0.2292206 -0.06391302
-0.08378083 -0.11675963 0.15500785 -0.108211 0.030225432 -0.0054943217 0.08352772 -0.05469148
0.11338024 0.0006104902 -0.02501744 0.1344142 0.027361847 -0.21609913 0.17757821 -0.11449092
0.037383568 -0.16616873 -0.05981208 -0.0011317105 0.16640015 -0.092971675 0.07423537 -0.22178239
-0.20072639 -0.01815894 0.12250623 -0.08093395 0.0075947396 -0.23945375 0.11166603 -0.22130275
-0.1100938 -0.1859903 0.024898507 -0.19881342 -0.02971914 0.12867987 -0.01460034 0.18714778
0.1719422 0.09156741 0.2002727 0.12536746 0.0717742 0.19101651 -0.002667307 -0.0449239
-0.031795718 0.16673842 0.06996581 -0.034595206 0.14065674 -0.14527597 -0.18544847 -0.09428619
0.29275697 0.014795912 -0.15524046 0.22336914 0.062203187 -0.02872516 0.039487112 -0.059573136
-0.04239037 0.032993548 0.009639314 -0.06151189 -0.022089625 -0.13760231 0.11556065 -0.10500409

rnn.weight_hh_l1 f4 [24, 24]
00000000: 7d5b a4bd 95c9 dbbd fbc6 813d c402 17be
00000010: 65bb 85be a683 8dbd e9c5 b1bd a1ec ee3d
00000020: 324f 09be 53c2 8ebd 1584 cc3c b742 ebbd
00000030: 92db f33d 68f8 ec3c 9c71 59be 6511 d0bd
00000040: 7006 073e 6594 3ebe eaa3 4bbe 66cb b0bd
00000050: b153 a4bd 57dd b33d 741d 42be fc48 dbbc
00000060: 3909 43be 6e79 333e 9d4c 4e3e 473b 3f3e
00000070: bb0b c83d 07eb 913d 5b61 aa3c a3db 423d
00000080: 4ec1 853c b2a0 62bd 2306 d83d 045a 2fbe
00000090: fbb7 083c 8922 0fbd f367 0cbe 8857 4f3e
000000a0: f526 0b3e bec9 663d 31b9 38be 63c3 cebb
000000b0: 571c cc3c b94f 06be f3ca 2bbc 5239 e5bb
000000c0: 8614 3cbe 73a7 4b3e 1ba1 8cbc acb9 393e
000000d0: a8f2 13bd f3b4 37be 72d2 633d f1f1 5ebd
000000e0: 83e2 a23d aed3 123e d289 30be a2e0 22be
000000f0: 046f 923c 400b 343e 2281 2cbe b1e1 35be
00000100: f310 eabd 94b8 edbd 8d6a 4d3e 23f0 ebbd
00000110: e6f4 87bc 465e 1ebe 53f0 063e c2a2 73be
00000120: fc0c f23d b4cd 853b c1c6 9c3d b0fe 853d
00000130: 4237 b0bd 1e84 06be a0c1 963d 6180 35be
00000140: 007e 0cbe 318d b4bd a826 df3d 8975 7d3d
00000150: 428d 79bd 0366 bcbd bd38 cabc fa38 ad3d
00000160: 663c 3d3e 20be 393d 94da e43b 1026 b53d
00000170: f889 303e b009 1b3d 7c40 393e 534b 89bd
00000180: c406 5f3e 42d6 6ebe fac6 c13d e215 26be
00000190: 3d9a 1bbe 7c0f 1e3e 91c2 31be be68 623e
000001a0: e0a9 6ebc 5b7b 20be 2759 963d 8534 013d
000001b0: f309 f8bc 3fd7 96bd 1718 23be 0d30 853c
000001c0: ecd0 62bd e19e 17bc 2ef2 afbd 28da 24be
000001d0: a294 313e 082f 483e c95c b3bd c8ba 273e
000001e0: 89db 1ebe d57c 253e 6572 f8bd 2ebf 17be
000001f0: cd0c f5bd 2110 913c fda0 0d3e 4451 643e
00000200: 6bec 74be 6ebc 03be f3c7 ad3d a527 0bbe
00000210: 8d3b bf3d e517 7d3c 51bb 67be 1892 2abe
00000220: 23ff f6bd ec0f 4b3d 280e 4abd 4d45 0b3e
00000230: 298c 23be 4474 3cbd db66 403d 8cc1 3a3d
00000240: 7740 1fbd 7392 55be 181a 1dbe ee9c 143e
00000250: 5176 08be f92f 713d 0f60 5abc 679d 1dbe
00000260: 46c6 423e e518 40be b008 cb3d d661 063e
00000270: 23fc 3cbe 149c 01be 8319 083e cb25 0bbe
00000280: 6d80 fbbd 6f63 f5ba 58c1 80bd 9d15 463e
00000290: b8b6 92bc 6586 40be 4e7e 473e 5f5d ef3d
000002a0: 7ed6 ccbd 714d 1cbe 06aa fb3d d644 a03d
000002b0: 65f2 abbc 25d2 43bc 7471 1b3d c75d 79bd
000002c0: a2d5 8e3e ce91 27be fedc 723e 668c 25bd
000002d0: eea0 1bbe cf31 adbd b09d cbbc 3ceb 3f3e
000002e0: 188d 363e e348 333e 15ac d7bd f7bf 5d3e
000002f0: f9d7 033e 7f52 3bbd 4466 69bb 7e35 e2bd
00000300: 8950 363e 5280 49be 0d0b 073e d684 023e
00000310: bc3b 92bd 9df9 2c3e 3a16 26be 4894 2ebc
00000320: 534f 263e 83cb c6bd 70f0 513e cff0 13be
00000330: 20e1 16be d6ea 4abc f446 ee3d 6cce ccba
00000340: 1d0f 0b3e 6f03 c63c 5e77 1dbe e1dd f53c
00000350: 2813 083e 622e 0b3e 501a e6bd dbfc e6bd
00000360: dc80 08be d272 17bd c9b8 103e 1834 a5bc
00000370: 85cb d0bd e4e7 303e fd92 21ba ca9e 083d
00000380: 4d9d 9bbd abca 4cbe f727 8d3d b83c b6bd
00000390: 74a5 35bd 8028 8cbd 7187 383e 8386 5d3e
000003a0: 43f0 213e 8c1e 063d f90d 483e 221c babd
000003b0: 217a 123e 0ef9 ffbd d599 b13d 3649 663e
000003c0: a89f 163d 590f 0abe 040f 323c fe7c 2abd
000003d0: cb68 95be 3113 12be 32ed 5abe 01d8 063e
000003e0: 9248 89be 0a17 c83a 1255 96bd c250 343e
000003f0: b520 f9bc b1f7 55bd 20ac 35be f85c 14be
-0.080252625 -0.10731808 0.06336781 -0.14747149 -0.26119533 -0.069098756 -0.086803265 0.11666227
-0.13409117 -0.06970658 0.024965325 -0.11487334 0.11907114 0.028927043 -0.21234745 -0.10159568
0.1318605 -0.18611296 -0.19886747 -0.08632545 -0.08023775 0.087824516 -0.18956548 -0.0267682
-0.19046487 0.1752679 0.20146413 0.18674956 0.097678624 0.07124906 0.020798376 0.047572743
0.016327526 -0.055329032 0.105480455 -0.17124182 0.008344646 -0.034945045 -0.13711528 0.20248234
0.1358908 0.05634474 -0.18039395 -0.006309913 0.024915857 -0.1311635 -0.010485399 -0.0069953585
-0.18367204 0.19888096 -0.017166665 0.18137234 -0.036120087 -0.1794012 0.05562062 -0.054429952
0.0795336 0.14338562 -0.17240074 -0.15906003 0.017875202 0.17582417 -0.16846135 -0.17761876
-0.11429014 -0.11607471 0.20060177 -0.11520412 -0.016596269 -0.1546565 0.13177614 -0.23792556
0.11818883 0.0040833596 0.07655097 0.065427184 -0.086042896 -0.13136336 0.0736115 -0.17724754
-0.1371994 -0.088159926 0.10896045 0.06187967 -0.06092573 -0.09199145 -0.024685258 0.08458133
0.18480071 0.045347333 0.0069840644 0.088451505 0.17240131 0.037851036 0.18091005 -0.0670382
0.21779925 -0.2332392 0.0946178 -0.16219285 -0.15195556 0.15435594 -0.17359377 0.22110268
-0.014566869 -0.15672056 0.07341223 0.031544227 -0.030278182 -0.07365274 -0.15927158 0.016258264
-0.055375025 -0.009254188 -0.08591114 -0.16098845 0.17341855 0.19549191 -0.08757932 0.16379845
-0.15513434 0.16160901 -0.12131194 -0.14819023 -0.11965332 0.017707886 0.13830943 0.22296625
-0.23918311 -0.12864849 0.08485403 -0.13589342 0.0933753 0.015447591 -0.2263005 -0.16657293
-0.12060382 0.04957573 -0.049329907 0.13600655 -0.15971436 -0.046009317 0.04697309 0.045594737
-0.038879838 -0.20856647 -0.15341985 0.14512989 -0.13326384 0.05888364 -0.013328566 -0.15392075
0.19020948 -0.18759497 0.099137664 0.13123259 -0.18455558 -0.12657195 0.13290982 -0.13588636
-0.12280355 -0.001872165 -0.062868774 0.19344182 -0.017909393 -0.18801267 0.19481775 0.11687731
-0.10001849 -0.15263917 0.12288289 0.078256294 -0.020989606 -0.011951958 0.037949994 -0.06088045
0.27897364 -0.16364214 0.23717114 -0.040417098 -0.15198109 -0.08456766 -0.024855465 0.18742079
0.1782726 0.17508273 -0.10530869 0.2165526 0.12875356 -0.04573297 -0.0035613934 -0.11045359
0.17804159 -0.19677857 0.1318781 0.12745985 -0.071403 0.16892095 -0.16219416 -0.01065547
0.16241197 -0.097067855 0.20501876 -0.1444733 -0.14734316 -0.012385091 0.11634627 -0.0015625483
0.13579984 0.02417156 -0.15377566 0.030013027 0.13288558 0.13591912 -0.112354875 -0.11278697
-0.13330406 -0.036974736 0.1413299 -0.020166442 -0.10195068 0.17275959 -0.00061635656 0.033354558
-0.07598362 -0.19999187 0.06892388 -0.088983 -0.04434724 -0.06843662 0.18020417 0.21633343
0.15814309 0.032743976 0.1953658 -0.09087397 0.14304401 -0.12498675 0.08671919 0.22488865
0.036773354 -0.13482417 0.010867838 -0.041623108 -0.29181513 -0.14265133 -0.21379545 0.13168336
-0.2681318 0.0015265655 -0.073404446 0.17608932 -0.030411104 -0.05223817 -0.17741442 -0.1448859

rnn.bias_ih_l1 f4 [24]
00000000: 45b1 3b3e 5bc6 83bd 0c13 263e 73bc d5bc
00000010: ed0b a13d 3218 253e 7965 edbc 0a71 8b3d
00000020: f410 24be fdc1 393d 2b3a f4bd 0e8a 5a3e
00000030: a10b 64bd 8321 3abe fe3c 01be 38d0 48be
00000040: 98b2 9dbd eded 25be fb73 3ebe 1e13 09be
00000050: 683d 16be 9f4a 38be 63be 113e c771 b0bd
0.18329342 -0.06434318 0.16218203 -0.026090836 0.07863603 0.16122511 -0.02897905 0.0680867
-0.16022092 0.045351017 -0.11925157 0.21341726 -0.055675153 -0.18176846 -0.12620923 -0.19610679
-0.0770008 -0.16204043 -0.1859893 -0.13386199 -0.14671862 -0.17997216 0.14232783 -0.08615451

rnn.bias_hh_l1 f4 [24]
00000000: 3fe1 03be f66b a3bd ea47 02bb 46db 36bd
00000010: fe90 adbd 733e 17be 36a3 9b3b 9f62 8ebd
00000020: cad6 1f3e fd10 0bbe 3ffb f5bd 47ac ebbd
00000030: 0bfc f73d 0fb6 b73d 3c20 e1bc 1d81 cd3d
00000040: 67ec 383e acf2 5d3d a25e 3bbd 9998 ae3d
00000050: 72f7 023e 7bee 253d a8a5 19be ae8d 81bd
-0.12878893 -0.07979576 -0.001987929 -0.04464271 -0.08474921 -0.14769916 0.004749681 -0.06952404
0.1560928 -0.135807 -0.12010812 -0.11507469 0.1210862 0.08970272 -0.02748119 0.10034392
0.1805893 0.054186508 -0.045744546 0.085251994 0.12789705 0.040510636 -0.15004599 -0.063258514

rnn.weight_ih_l2 f4 [24, 24]
00000000: b21b 873c ab98 083e dfda 60bb b6c8 193d
00000010: bb27 a63d e539 1c3e c295 c73c 4f9b 2d3e
00000020: 7d5f 403d baa4 7e3c d8b0 26be e5af e3bd
00000030: b2af 8c3d f271 8cbd 8b0d b1bc a56d 96bd
00000040: bf9b 0cbe bb34 cf3c c35f a839 a27c 51be
00000050: 78b8 f6bd 7430 053e dcb9 27bc f272 173d
00000060: 35fa 91bd fcfd 713d 5203 4fbe d930 073e
00000070: 35dd a9bd a628 a43d cec3 dc3b b951 353e
00000080: 88e7 7b3d e25d 663e f639 883d 04d7 9eba
00000090: b785 e03d c478 0dbd eb56 45bb 57ff 65bd
000000a0: 3c29 c2bd 09a5 3e3d 11e6 233e f4f5 e6bd
000000b0: 5142 c7bd 6d2d d4bc 85a3 69bd bc34 9bbd
000000c0: 968f ed3d 0d14 b2bc 0751 09be fdbd f53b
000000d0: 6b76 8d3e df04 aebd 73cd bb3d b137 1abc
000000e0: cee4 d03d f274 553e d888 3ebe 0097 b73c
000000f0: e06a 3dbe 8456 d03d 52fd 7e3d f001 933c
00000100: 7a2f 09be 1478 db3c 53be 3cbe cbc4 733c
00000110: 7136 2bbe 7524 14be 4352 b83d 572f 773e
00000120: 726c e43d de5c 433d 63ec 533e 33eb c53c
00000130: 797d 4f3c 2c7d 093e 5c42 00be 1f79 9e3d
00000140: 88a1 a13d 52ff 0cbe cf9f 2b3e 6be0 9fbd
00000150: 90ba f3bd d01b a9bd 0f54 35be 56b6 9d3d
00000160: 184d f43d b2db 1abe f139 b33d 8890 7cbd
00000170: 4cfe 8cbd d0f0 a43c e78a 4cbe 756d 123e
00000180: ea41 44be 1a32 0cbe 7666 0d3e 8da4 663e
00000190: 2be7 dfbd 269c e73d 4395 6a3d 8896 22bd
000001a0: 9f42 98be d773 59b9 6910 6dbe 3784 3c3d
000001b0: d9cb 823e 3726 573e e340 f7bb 9753 fa3d
000001c0: e911 74bd 7488 2cbe b370 e9bc 14a5 51be
000001d0: babb 2d3e 7298 54be d051 573d 5f79 943d
000001e0: a811 85bd b414 3e3e 1a60 ff3d 2cac 62bd
000001f0: 05de d83d e816 99bd 7c86 0cbc 0fe5 33be
00000200: 5e73 f23d 82f7 7abe df15 dc3c 2ae9 0c3e
00000210: e70a 4fbd 420e 3e3d cfa1 093e f8bb 95be
00000220: 98b4 00be 506f 3abe d21f 66be 24c8 81bd
00000230: 4c00 3ebe d590 abbc d250 b0bd fc2c 80be
00000240: 4790 e4bb 4a2d 4e3d db46 43be 8a20 02bd
00000250: 4fe3 5c3e 0ec7 593c 8793 3b3e 556c 4cbc
00000260: 4d71 9c3d 32f3 4abe 04c6 ab3d 0212 b43d
00000270: bad7 96bd 1c94 303e 485b bd3c a1c3 fc3d
00000280: ecc6 0eba 0b7c 1c3c e012 5cbe 700f 833d
00000290: f5a9 263e 6441 90bd 2cc7 c83c 77fc 583e
000002a0: ef2e 533e 70cb 65be cb08 60be df97 55be
000002b0: 0d18 8d3e 872f 653d 5cea 633d 7016 653e
000002c0: 4e56 603e e78a 28bd e1da 4c3e 6126 153e
000002d0: 96cf 93bd 57b8 75bc 54a2 0abe 22c6 723e
000002e0: f2aa 143e 5a57 683e 623e db3c e481 3abe
000002f0: fb0d 07bd 0202 123e c2de 0f3e 6381 1cbc
00000300: e1d7 b0bc d9b5 a23d d5ae 52bd c409 bfbd
00000310: 9f68 1f3e 667e 1abe 91fa 1d3e e306 c5bc
00000320: 3a7a 39be 00c6 9b3d b51b 2abe 0ab7 4dbd
00000330: f10c cb3d 847f 0c3e 3fc6 66bd 8dd5 bb3d
00000340: ff13 8bbd fc52 26be 6231 323e afae 783d
00000350: bce1 8ebd 2f79 04be 46cf 8f3d bbc3 e73d
00000360: e192 263e 3ac7 3a3e 5698 203e c39b 033e
00000370: 5f4b 853d c809 0e3e 9bcd ddbd f630 4fbe
00000380: d0d3 3dbd c991 13be e48e 0f3e d150 9d3d
00000390: 1ff9 743e edbd 063e 4623 873d 256e 51be
000003a0: c522 88bd 6465 6138 e6b2 453d 278d 7c3e
000003b0: fca0 27be 3d42 dfbb 634a 313d 945b e9b9
000003c0: e8f5 6f3e b817 1c3d 9e41 db3d 2df3 27be
000003d0: 731b 153e d1bd 3e3e b84f 88bd abfa c3bd
000003e0: cee4 4abd bd7b 56be 8d47 2c3e 6a28 23bd
000003f0: b0ba a83d 5b8c 47be 9480 023d 34c2 59be
0.016492698 0.13339488 -0.0034310145 0.03754493 0.08113047 0.1525646 0.024363402 0.16953777
0.046966065 0.015542204 -0.16278398 -0.111175336 0.06869449 -0.06857671 -0.021612903 -0.07345132
-0.13731287 0.025293699 0.00032114805 -0.204577 -0.12046903 0.13006765 -0.010237183 0.036974855
-0.07127801 0.05908011 -0.2021611 0.13202228 -0.08294145 0.080155656 0.006737209 0.17706956
0.061500102 0.22496751 0.0665168 -0.0012118523 0.10963004 -0.034539 -0.0030111622 -0.056151714
-0.09480521 0.04654411 0.16005732 -0.112773806 -0.09729446 -0.025900567 -0.05704071 -0.07578418
0.115996525 -0.021738077 -0.13409816 0.007499455 0.27629408 -0.08497023 0.09170046 -0.009412692
0.10199891 0.20845392 -0.18606889 0.02241087 -0.18497801 0.101727515 0.062253304 0.01794526
-0.13397017 0.026790656 -0.18431978 0.014878462 -0.16719986 -0.14467032 0.09000065 0.24139152
0.11153497 0.047695987 0.20695643 0.024160003 0.012664192 0.13426656 -0.12525314 0.07737946
0.07892138 -0.13769272 0.16760181 -0.07806476 -0.11900818 -0.08257258 -0.17707847 0.077007934
0.11928767 -0.1512287 0.08751286 -0.061661273 -0.06884441 0.02013436 -0.19974862 0.14299567
-0.19165769 -0.13690987 0.13808617 0.22523709 -0.10932764 0.1130908 0.057271253 -0.03969434
-0.29738328 -0.00020737886 -0.23150791 0.046024527 0.25546148 0.21010672 -0.007545577 0.12222975
-0.059587393 -0.16848928 -0.028496122 -0.20473129 0.16966143 -0.20761278 0.052568257 0.07249712
-0.06497508 0.18562585 0.12469502 -0.055339977 0.10589222 -0.07475072 -0.008576985 -0.17567848
0.11838411 -0.24508479 0.026865898 0.1376082 -0.050547507 0.046400316 0.13440631 -0.2924497
-0.12568891 -0.18206525 -0.22473076 -0.06337002 -0.18554801 -0.020943085 -0.08609165 -0.2503432
-0.006975207 0.05033616 -0.19069998 -0.031769313 0.21571086 0.013292087 0.18317996 -0.012477
0.07638798 -0.19819334 0.08387378 0.08792497 -0.07365365 0.17243999 0.023114815 0.12342001
-0.0005446512 0.0095510585 -0.21491575 0.06399429 0.16275771 -0.07043722 0.024509035 0.21190058
0.20623372 -0.22440886 -0.21878354 -0.20858715 0.27557412 0.05595353 0.055643424 0.2237184
0.21907923 -0.041148093 0.2000537 0.14565422 -0.07217328 -0.014997563 -0.13538486 0.23708394
0.14518335 0.22689572 0.026763145 -0.18213612 -0.032972317 0.14258578 0.14049819 -0.009552333
-0.021587314 0.07944841 -0.051436264 -0.093280345 0.15567254 -0.1508728 0.15427615 -0.024051135
-0.18113032 0.07606125 -0.16612132 -0.050223388 0.09914578 0.13720518 -0.056341406 0.09171591
-0.06790923 -0.16242594 0.1740165 0.060713466 -0.06976649 -0.12936853 0.07021956 0.113166295
0.16266967 0.18240061 0.15683112 0.12852387 0.065085165 0.13870919 -0.10830232 -0.20233521
-0.04634458 -0.14411081 0.14019352 0.0768143 0.23923157 0.13158388 0.06598525 -0.20452173
-0.06647257 5.3738608e-05 0.048266314 0.2466322 -0.16370004 -0.006813316 0.04328383 -0.00044509454
0.2343365 0.038108557 0.10705875 -0.16401358 0.14561252 0.18627097 -0.0665583 -0.095692955
-0.04953461 -0.2094564 0.1682417 -0.039833464 0.08238733 -0.19487135 0.031860903 -0.21265489

rnn.weight_hh_l2 f4 [24, 24]
00000000: 97fa 9dbc da32 bd3d 31e0 b6bd 87df 2d3e
00000010: af5f 153e 0c4e 303e 365a 483e c77d 3b3d
00000020: d15a 32be 5d66 dc3d 1bec 9bbd 0746 503c
00000030: b6af ec3d e113 713e 1a4c 313e 6cb4 48bd
00000040: 3a43 87bd 0877 11be 1d8f 6b3d fd3c 31be
00000050: 130b a83c a5bc 75be f172 673d 1b2e d7bb
00000060: 17dd 2fbe caab 45be 052e 653e 5a4c 96bc
00000070: e73c 34be c2f0 063e ff52 0dbc 3cf8 6f3e
00000080: cc0d d3bd e086 97bb ddb4 b5bb be0c a93d
00000090: f900 513e 8053 6d3d d451 9b3d 5d2b 2bbd
000000a0: cae8 9d3c af0e 5e3e d13e 11be 31a0 b53c
000000b0: 0bca f63d 5aec 003e 731b 783d 2a29 58bd
000000c0: 2f7a 99bd 0d0e e93d ddde 5e3d d04d 69bd
000000d0: a682 8ebe acf5 b33d 0c84 023d b69d 29be
000000e0: 2297 0cbb 1ebd 923d 16c7 6f3e c26c 14bc
000000f0: 895b 0c3e 71f0 afbd 29ab 383e 20ea 43be
00000100: 417c 1a3b 52ad eebd f811 a03c 1f42 2bbe
00000110: e2fe 1fbd 9131 623d bd14 3cbe 26c2 45be
00000120: ede7 c3bd f9a8 4c3e f3d9 af3d e3f7 eb3d
00000130: cd44 153e 2629 b53d e46c 9c3d 2af3 a33c
00000140: da78 b63d 8def 6dbd 2895 413c f861 cd3d
00000150: 4e53 b9bd ac41 a63d 4a21 85bd 1bef 2e3d
00000160: b0a4 7f3e 1ad8 a1bd dc47 57be db06 04be
00000170: ebea d23d f4bd a33d f3db 45be fb23 463e
00000180: e4df 44be 0fbc 84bd fe19 f13d 895a a4bd
00000190: ec73 0d3e 1ab9 3b3e d241 673e 42b3 383e
000001a0: 4be7 3ebe d2cf 46bd 592d af3d 4793 a43d
000001b0: 207e dfbd 9e6b afbd eb63 f3bd 87ab b03d
000001c0: 0265 13be 025a f4bc 7bf1 363e 26d0 1bbe
000001d0: b218 13bd d614 30be 580c 65bd 9ec3 2dbd
000001e0: d0f4 19be 6916 943d 3abf 223e 296e 4bbe
000001f0: 98af e3bd 18e6 4abd 3aea fbbd 2a60 80be
00000200: 9931 663d ba4f 27bd 3a10 6d3d 5407 543e
00000210: a0c7 96bc ce3f 0f3e b6c4 583d 2b6a 703e
00000220: bdf4 5d3d 80aa 68be c6dc c2bd 5c67 cd3d
00000230: e7ec afbd 07c4 c33c 139a 27be 4fc3 3f3e
00000240: 4a16 c0bc 4447 a5bd cfc3 50bd ce01 bc3d
00000250: b076 5f3d db0f 113e 7814 123e 1e6a 263e
00000260: 86b3 983d 3925 523e 7ef0 013e e67a 2c3d
00000270: 0d42 9cbd a9d8 1c3e 2a1a f3bd 8bb8 22be
00000280: 3322 623d 9e6e 013e dd38 49be 2510 49bc
00000290: 827c 953b 360e 74bd 0b4e 7e3d ecf9 083e
000002a0: 404f 943d ee4b 1c3e d531 fcbd aeda 8abc
000002b0: 0609 2dbd 3ec1 10bd 668e bebd 40e2 253e
000002c0: b824 9cbd dae6 23bd 188e 1d3e 6d83 59be
000002d0: d7d1 eb3d a021 26bd ab6e 923d f360 66be
000002e0: d5ca 6cbd d35f 41bd 407a 0c3e 861a 3bbe
000002f0: 50db f83d 4680 0c3e cf28 56be 434a 63bd
00000300: 9744 9c3b 8302 dc3d f189 993d ad0d f6bc
00000310: e02e e83d 3ea7 443d d7e9 4f3e 4c91 243e
00000320: edc1 b1bd 4447 5cbe 06ce 11bc 7659 103d
00000330: 1397 523e 0853 013e 4a78 11be 9a04 fcbd
00000340: 245d 153c 8c17 24be fba8 0c3e f08a 283d
00000350: 0c18 32be 0ccc 08be 1d54 553e e4e3 e73b
00000360: de8a 433e a357 11be eca5 413e d1bd 91be
00000370: 023f 873e 396a 203e d0c5 883c da4c 013e
00000380: 5e12 d93d aabd 81bd 5813 83bc 7672 a93d
00000390: 06fc 88bd 0730 943d b5f5 f73d 2065 9b3d
000003a0: 4d27 5e3d 7901 34be ba2f c6bd f3ac a5bd
000003b0: b84c abbd b38f 873d a8b8 27be 69ca c5bd
000003c0: d9d5 b7bd 028b 9dbd 9dc0 ae3c 5334 0cbe
000003d0: b811 e83d f924 cbbc ce8d 8fbd f69f 053d
000003e0: 029d ecbd e3cd d6bd f9b6 54be 83be 8cbd
000003f0: 7489 ac3a 9d59 38be e49f 923d 8fc6 683e
-0.01928453 0.09238215 -0.0892948 0.169798 0.14587282 0.17217273 0.19565663 0.045774247
-0.17417456 0.10761712 -0.07613393 0.012712008 0.11556952 0.2354274 0.17314187 -0.04900019
-0.06604619 -0.14205563 0.05750953 -0.17308421 0.020513093 -0.23997743 0.0565061 -0.0065667755
-0.17174183 -0.19303814 0.22380836 -0.018346954 -0.17601357 0.1317778 -0.008625745 0.23434538
-0.10305366 -0.0046242326 -0.005545242 0.082543835 0.20410527 0.05794096 0.07583967 -0.0417894
0.019276042 0.21685289 -0.14184119 0.022171112 0.120502554 0.12590161 0.060573053 -0.052773632
-0.07494008 0.11379633 0.054411758 -0.056958973 -0.27834052 0.087870926 0.03186421 -0.16564068
-0.0021452387 0.071649775 0.23415789 -0.009059133 0.13706793 -0.085907824 0.18034042 -0.1913228
0.0023572596 -0.11654152 0.019539818 -0.16724442 -0.039061435 0.05522305 -0.18367286 -0.19312343
-0.09565721 0.19986333 0.085864924 0.1152189 0.14577027 0.08845739 0.07637957 0.02001341
0.08909769 -0.05808978 0.011815347 0.10028452 -0.09049092 0.08117995 -0.0650049 0.042708497
0.24965167 -0.07902546 -0.21023506 -0.1289324 0.10298713 0.07995215 -0.19322185 0.19349663
-0.19226032 -0.06481182 0.11772536 -0.08025081 0.13813752 0.1833233 0.22583702 0.18037131
-0.18642919 -0.048538037 0.08553571 0.080359034 -0.10912728 -0.08565448 -0.11884292 0.08626466
-0.14394 -0.029828075 0.17865555 -0.15216121 -0.035912223 -0.17195448 -0.055919975 -0.042422883
-0.15034795 0.07230837 0.1589326 -0.19866242 -0.11117476 -0.04953584 -0.123005345 -0.25073367
0.056199644 -0.040847518 0.057876803 0.2070592 -0.018405735 0.13989183 0.052921973 0.23478
0.05418848 -0.2272129 -0.095147654 0.1002948 -0.085901074 0.023897184 -0.16367368 0.18726848
-0.023448128 -0.080702335 -0.050967988 0.09180032 0.05455655 0.14166205 0.1426562 0.16251418
0.074561164 0.20522012 0.12689397 0.042109393 -0.07629786 0.15317024 -0.11870225 -0.1589071
0.055208396 0.12639853 -0.19650598 -0.012271916 0.0045619616 -0.059583865 0.062086146 0.13376588
0.07241678 0.1526334 -0.12314192 -0.016949978 -0.042244934 -0.03534054 -0.09304504 0.16199589
-0.07624191 -0.04001508 0.15386236 -0.21241541 0.11514633 -0.04055941 0.071500145 -0.2249792
-0.057810623 -0.047210526 0.1371851 -0.18271837 0.121512055 0.13720807 -0.20914005 -0.055490743
0.0047689187 0.107426666 0.07497013 -0.030035818 0.11337066 0.048011057 0.20304047 0.16071051
-0.086795665 -0.2151156 -0.0088992175 0.035241567 0.20565443 0.1262933 -0.14206043 -0.12305565
0.009116445 -0.16024607 0.13736336 0.041148126 -0.17391986 -0.13359088 0.20832868 0.007076727
0.19095942 -0.14193587 0.1891095 -0.2846513 0.2641526 0.1566552 0.016695887 0.12626973
0.105992064 -0.06335004 -0.016000435 0.08273785 -0.06688695 0.07235723 0.12107412 0.075876474
0.0542367 -0.17578687 -0.09677072 -0.08089628 -0.08364242 0.06619205 -0.16379035 -0.09657747
-0.08976335 -0.07692529 0.02133208 -0.13691835 0.113315046 -0.024797903 -0.07009469 0.032623254
-0.11553384 -0.104884885 -0.20772924 -0.06872275 0.0013163523 -0.18002935 0.07159403 0.22731994

rnn.bias_ih_l2 f4 [24]
00000000: c524 8ebc 8561 133e 3d55 a5bd f050 073e
00000010: 2970 9b3c 79dd 26bc 31b5 a63d fd62 fcbd
00000020: 61f8 0ebe 7f9b 0cbc f9ba 12be 269f f83d
00000030: 803a 35bd 9e36 6a3d 02a5 31be 917c 0bbd
00000040: 764d 9e3d 180c fb3d d6f8 253e 28ff 543d
00000050: e43a fb3d d2dc 0c3e 32d6 0bbe d1dd fdbd
-0.017351517 0.1439267 -0.080728985 0.13214469 0.01897438 -0.010184639 0.08140028 -0.12323568
-0.13961937 -0.008581995 -0.14329137 0.1213973 -0.044245243 0.057180993 -0.17348102 -0.034054343
0.07729618 0.12258166 0.16208205 0.05200115 0.12267092 0.13756111 -0.13655928 -0.12395824

rnn.bias_hh_l2 f4 [24]
00000000: d9fd 263e a637 b1bd fb1e 823d f3a3 013d
00000010: 6b11 abbd baa1 063e a7d9 35be 16b1 f33d
00000020: 2f4b 1fbb 281c 94bd 698e 063e 3b0b 23be
00000030: e7cc f9bc 5ddd 3abe 9047 893d 1786 c43d
00000040: e8cd 18bd 4ea3 93bd 18e1 92bd a43f 403d
00000050: 783a 02be ebbf c5bd dfe6 803b 1b0d 243e
0.16307773 -0.08653192 0.06353565 0.031650495 -0.083529316 0.13147631 -0.17758809 0.11899011
-0.0024306288 -0.07231933 0.13140263 -0.15922253 -0.030493213 -0.18248506 0.067031026 0.09595888
-0.037305743 -0.07208882 -0.071718395 0.046935692 -0.12717617 -0.09655746 0.003933772 0.16020624

rnn.weight_ih_l3 f4 [24, 24]
00000000: f8ce 46be 86a2 36bd 746f 033e 0c6d 143e
00000010: b0af 5fbe 9ed3 273d 65a1 8a3e 9e4e 013e
00000020: b6f8 0bbe 96b0 49be bbc9 2cbe 3fd1 1cbe
00000030: 3ac1 a03b c562 043e 9f38 723e bca6 4cbd
00000040: 71ed 3bbd 14db b93c 5406 25be 193b babd
00000050: e6be 92be a22f 54be 629d 383e 3a21 843d
00000060: 8fff afbd c234 9a3d b2d8 373e 9376 c53d
00000070: 650c 24be d466 f8bd 80d7 923d dd61 423d
00000080: 7c95 743d 380e f6bd d0c4 5abd 7561 073d
00000090: 0ed5 66bd 0c2b 613e 1304 793e e9fb be3d
000000a0: 16ea 9bbd 82a0 003e ecd4 93bc af86 75be
000000b0: 21ec 8a3b 7130 aebd 4da4 ee3c 8ec5 fc3c
000000c0: 5db2 5bbe 9d4e 893c 4d82 1a3d 1381 1abd
000000d0: 3ff9 d6bd 8761 793d f97d 68bd 2729 0b3e
000000e0: 34a0 62be 3e49 633e 28f8 4f3e 3399 26be
000000f0: ac3f 0fbe 5647 f7bd 53a3 11bc 5999 3dbe
00000100: 62cf 8bbd 2a61 eb3d 1f1e 14be 874e 14be
00000110: f123 ab3d fd63 2abd 0533 9c3d 6588 2b3e
00000120: 9272 303e 00ed 983d 0b42 bf3c 552c 3bbe
00000130: 02e2 6c3e ce20 3cbd 0f89 bd3d 6114 80bd
00000140: e5ef 433e ffe5 603b 038a 5ebe baea 013d
00000150: 6c47 d53d 9fe7 283e e7aa 173e fc0c febd
00000160: deec 6e3e bf14 293e b595 2fbd 6810 333e
00000170: fe0f 963d 5e4e c53d 1b9a ef3d 98a0 763e
00000180: e27f 753e 255f 38be e10d 1e3e 53e7 133e
00000190: 5d3f d63d a85d 5cbe 2b2d 65be 9d77 243e
000001a0: 5a49 cf3d 1307 c63b ab41 edbb ac9b 803d
000001b0: f075 0fbe 47ac 1abe c0bb 4c3c b821 0ebe
000001c0: 07ca 2c3e 35da ecbd 4518 babd fe57 9a3d
000001d0: c333 813d dc8c 583e 77f5 313e 3422 88bd
000001e0: f0b0 373e 5571 313d bb37 763e a311 70be
000001f0: 089d 303e ed10 1bbe 3b1e 133e a7d4 19be
00000200: 9f91 7d3e bd87 24be 12af 84be 6553 81bd
00000210: 0f37 60bb 4fc8 cf3d 6e3c 3fbd f53c ae3d
00000220: d51b ff3d 4f27 23be 4301 0c3d 6f9d 283c
00000230: 9713 523e fa62 4fbc c3d3 52bd af57 57bd
00000240: af5b babd 0987 96bd 80df e4bd d985 d63b
00000250: 0891 533e 1495 1c3d d7e1 39be 3665 72be
00000260: 48a4 1a3e 8246 613e 6b53 8d3d 725a d0bd
00000270: b9b2 89bd 1690 9abc 843d 863d 9e67 593e
00000280: d838 f03d 445b debc 06bd 9a3c 5b84 713d
00000290: e9d5 7e3e a890 c1bd 2886 303d 304e 373e
000002a0: 497a 313e b5cb 073e 9507 653e 184c cebd
000002b0: eab4 08be 4800 41be 2f60 37bd a34b 273e
000002c0: 8493 173e 6c24 773d fa6f da3c 6dda 733e
000002d0: ceca c73d 92bb 173e ae63 c43c 8207 0a3e
000002e0: e1cc 153e 2b4e a9b9 0d44 dbbd 1fce c73d
000002f0: a764 b9bd f7cb 0f3e 93bf ee3d 7690 4b3e
00000300: ae6e 1d3e 55fd 6f3e 9c1f 4fbe 252d 8abe
00000310: dd32 813e 7299 ce3d 1012 13bd 1387 4abb
00000320: 9c21 6c3e a35c cdbc e739 d5bd bff5 2b3e
00000330: 3411 71be a833 1dbe 827f 32be b013 9abc
00000340: 05e8 583d 6db2 cabd ebfc b73c 7cfa 6c3d
00000350: 5a9a a13d 0ae3 403d 6029 953d 404d 2e3e
00000360: 14b8 a6bc e280 09bd dfee 643e 380b 09be
00000370: fa29 4c3e 3550 ef3d 2f6a 313e 98d5 613e
00000380: 4361 363e 4e0c 13be 91ab d6bb 90bd bbbd
00000390: cee4 123e d823 0d3e b7c8 453e e323 933b
000003a0: b6c5 0b3e 2ced cb3d 803c 0ebe f6f1 40be
000003b0: 1cd4 b8bd b77b a5bb 1e46 4d3e 6b4e d9bc
000003c0: a0f4 2dbe ffda 85be c61a c5bd 2f01 3a3e
000003d0: c2dd 60bb 6059 863d 4e7c 51be 8713 23be
000003e0: 99cb f83d d71a 6a3e 473e 2b3e 0ebb 4fbe
000003f0: b504 3dbc b3fe 733c f033 c83c a254 2cbe
-0.1941489 -0.04458859 0.12835485 0.14494723 -0.21844363 0.0409733 0.2707626 0.12627646
-0.13669094 -0.19696268 -0.16873829 -0.15314196 0.004905847 0.12928303 0.23654412 -0.049963698
-0.04588074 0.022687472 -0.16115695 -0.09093303 -0.2866127 -0.20721295 0.18028787 0.0645165
-0.08593666 0.07529594 0.17953756 0.09641757 -0.16020353 -0.12128988 0.071700096 0.04745661
0.059712872 -0.12014431 -0.05341035 0.033051927 -0.05635553 0.21989077 0.2431796 0.09325392
-0.07613008 0.12561229 -0.018045865 -0.23977159 0.0042395745 -0.08505333 0.02913108 0.03085592
-0.21454759 0.016761119 0.03772192 -0.03772075 -0.10496759 0.060884025 -0.056760762 0.13589917
-0.22131425 0.22195908 0.20309508 -0.16269378 -0.13989133 -0.12074153 -0.008889037 -0.18515529
-0.068266645 0.11493142 -0.14464615 -0.14483081 0.08356465 -0.041599263 0.07626919 0.16751249
0.17231205 0.07467079 0.023346921 -0.1827863 0.2313309 -0.045929722 0.092546575 -0.06253887
0.19134481 0.0034316776 -0.21732335 0.031717993 0.10414013 0.16494606 0.14811288 -0.1240482
0.23332545 0.1651182 -0.04286738 0.17486727 0.07327269 0.09634088 0.11699315 0.24084699
0.23974565 -0.18005045 0.15434982 0.14443712 0.10461304 -0.21520102 -0.22380511 0.16061254
0.101214126 0.006043324 -0.0072404942 0.06279692 -0.14009833 -0.15104781 0.012495935 -0.1388005
0.16873942 -0.11565057 -0.0908666 0.075363144 0.06308701 0.21147484 0.17378794 -0.06647149
0.1793859 0.043320972 0.24044697 -0.23444228 0.17247403 -0.15143175 0.14367001 -0.15022527
0.24762581 -0.16067405 -0.25914818 -0.06314734 -0.0034212505 0.10145628 -0.04668849 0.085077204
0.124564804 -0.15932964 0.03418089 0.010291441 0.20515285 -0.012657875 -0.051471483 -0.052573856
-0.090995185 -0.07349975 -0.11175442 0.0065467176 0.20660794 0.03822811 -0.18152557 -0.23671421
0.15101731 0.21999553 0.06900676 -0.10173501 -0.06723542 -0.018867534 0.06554702 0.21230933
0.11729592 -0.027143128 0.018888962 0.058964115 0.24886288 -0.09451419 0.04309669 0.1790092
0.17331804 0.13261302 0.22366174 -0.100731075 -0.13350263 -0.18847764 -0.044769462 0.16337447
0.14802366 0.06033747 0.026664723 0.23813792 0.09755479 0.14817646 0.023973312 0.13479427
0.14628936 -0.00032292432 -0.10706339 0.09756111 -0.09052401 0.1404265 0.11657634 0.19879326
0.15374252 0.23436482 -0.20226902 -0.26987568 0.25234118 0.10087861 -0.035905898 -0.0030903264
0.23059696 -0.025068587 -0.104114346 0.16792963 -0.23541719 -0.15351737 -0.17431453 -0.018808216
0.052955646 -0.09897313 0.022459468 0.057856068 0.07890768 0.04709152 0.07283282 0.17021656
-0.020351447 -0.033570178 0.22356747 -0.13383186 0.19937888 0.1168522 0.17325662 0.22054136
0.1781054 -0.14360163 -0.006551214 -0.091670156 0.14345095 0.13783205 0.19314848 0.004490362
0.1364964 0.09957346 -0.13890266 -0.18842301 -0.09024832 -0.0050501483 0.20046279 -0.02652665
-0.16987848 -0.26143643 -0.09624247 0.18164514 -0.0034311865 0.06560016 -0.20457575 -0.15925418
0.12148208 0.22861801 0.16722976 -0.202862 -0.011536767 0.014892268 0.024438828 -0.1682916
