model/RNN_Predictor.pt (torch, 35799 bytes, 26 tensors)

rnn.weight_ih_l0 f4 [24, 14]
0	0xbe1e05eb	-0.15431945
1	0xbdcbf723	-0.09959247
2	0xbe49ef7a	-0.1972026
3	0xbded580b	-0.115890585
4	0x3e2beab4	0.16788751
5	0x3e2b23ca	0.16712871
6	0x3e15a06c	0.14611977
7	0x3e216478	0.15760982
8	0x3e39dc4c	0.18150443
9	0xbd5617a4	-0.05226864
10	0x3db7f0f4	0.08981505
11	0x3e3a399e	0.18186042
12	0x3d8a4c2c	0.0675281
13	0x3e50f49a	0.20405808
14	0x3dd8d338	0.10587162
15	0x3e01f05a	0.12689343
16	0xbd92501c	-0.07144186
17	0x3dc89710	0.09794438
18	0x3cc02520	0.023455203
19	0xbd47ac64	-0.04874839
20	0xbdeba824	-0.1150668
21	0xbdea929c	-0.11453745
22	0xbe20d6dc	-0.15706962
23	0x3e0c52d6	0.13703474
24	0x3e1499e0	0.14511824
25	0xbcbe50e0	-0.023231924
26	0xbdf1eae3	-0.11812379
27	0x3e218e1c	0.15776867
28	0x3e05ab00	0.13053513
29	0x3c7899c0	0.015173376
30	0xbdc55fd9	-0.09637422
31	0x3e401a2e	0.18759987
32	0x3daaf4c4	0.083474666
33	0xbe1eadcf	-0.1549599
34	0x3e480d6e	0.19536373
35	0x3e1eba08	0.15500653
36	0xbd985fc2	-0.07440139
37	0x3deb01b0	0.11474931
38	0xbded8780	-0.1159811
39	0xbd030714	-0.031989172
40	0x3e317b56	0.17332205
41	0x3c0a2fc0	0.008434236
42	0xbe13d330	-0.1443603
43	0xbd8bb98e	-0.06822501
44	0xbd62f408	-0.055408508
45	0xbd214e6c	-0.03938143
46	0x3ca00778	0.019534811
47	0x3e414f90	0.18878007
48	0x3c330f10	0.010928884
49	0xbe010f2a	-0.12603441
50	0x3c2b69d0	0.010462239
51	0x3dc872a4	0.09787491
52	0x3dcf5e24	0.10125378
53	0xbe3f08c7	-0.18655692
54	0xbd159cc8	-0.03652647
55	0xbe1b559b	-0.15169375
56	0xbdb25fd3	-0.08709683
57	0x3d969e8c	0.07354459
58	0xbe146f03	-0.14495473
59	0x3d9b6628	0.07587844
60	0x3e316a0e	0.17325613
61	0x3c5b5a10	0.013388172
62	0xbe0b4fb4	-0.13604623
63	0xbd95c79a	-0.073134616
64	0x3d369298	0.044573396
65	0xbe1f5794	-0.15560752
66	0x3dcfb090	0.101410985
67	0xbe3dc408	-0.18531811
68	0xbe48eebb	-0.19622318
69	0xbe4b197c	-0.1983394
70	0xbd299cd0	-0.041409314
71	0x3e0c8dd4	0.13725978
72	0xbe45d604	-0.19319922
73	0x3e2dbcc2	0.16966537
74	0xbda73a62	-0.081654325
75	0x3d74e0d0	0.05978471
76	0x3c188350	0.009308651
77	0xbe3c7aeb	-0.18406264
78	0x3e2d5954	0.16928607
79	0x3de11824	0.109909326
80	0x3e4fc4a2	0.20289853
81	0x3dd333bc	0.10312602
82	0xbe09f83e	-0.13473603
83	0x3e2e7284	0.17035872
84	0x3c33bdc0	0.010970533
85	0x3dc63e94	0.096799046
86	0xbe2799d0	-0.16367269
87	0xbd707b7c	-0.058711514
88	0xbe4d3c31	-0.20042492
89	0xbda2d36e	-0.07950483
90	0x3d345f08	0.04403594
91	0xbe241df2	-0.16027048
92	0x3d854218	0.06506747
93	0x3de068fc	0.10957524
94	0x3ce8f370	0.028436393
95	0xbe0bda99	-0.13657607
96	0xbe220f4c	-0.15826148
97	0xbd80f966	-0.06297569
98	0x3db7813c	0.089601964
99	0x3e4e2dfe	0.20134732
100	0x3df06384	0.11737731
101	0xbcbc4db8	-0.022986278
102	0x3d9292ec	0.071569294
103	0xbe4d1099	-0.20025863
104	0xbe3286e5	-0.1743427
105	0x3dc31050	0.09524596
106	0xbdecc9aa	-0.11561902
107	0x3dc91ec8	0.09820324
108	0xbe138e60	-0.1440978
109	0xbdcf1018	-0.101104915
110	0xbe2c2b88	-0.16813481
111	0x3dda2750	0.106520295
112	0xbcaa6330	-0.02079925
113	0x3e20dd4c	0.15709418
114	0x3e015bce	0.12632677
115	0x3de752a4	0.11295059
116	0x3bd71580	0.0065638423
117	0xbd81402e	-0.063110694
118	0xbd35cb00	-0.04438305
119	0x3cde3c00	0.02712822
120	0x3dcf3ac0	0.101186275
121	0xbe127083	-0.14300732
122	0x3e2f6db2	0.17131689
123	0xbcb5d118	-0.02219443
124	0xbe2f2667	-0.17104493
125	0xbde22fed	-0.11044297
126	0x3e38f286	0.18061265
127	0x3e3f2848	0.1866771
128	0xbe419d27	-0.18907605
129	0x3e136c76	0.14396843
130	0x3dd181fc	0.10229871
131	0x3df77304	0.12082484
132	0x3e30f1b6	0.17279705
133	0xbde14e61	-0.11001278
134	0x3d840244	0.06445745
135	0x3dab1414	0.08353439
136	0xbd770f50	-0.060317338
137	0x3d8be688	0.0683108
138	0xbd708e18	-0.05872926
139	0x3e013b1e	0.12620208
140	0xbd67fa4c	-0.056635186
141	0xbd9bd88a	-0.07609661
142	0x3d527c48	0.051388055
143	0x3d944744	0.07240155
144	0xbdcc3edc	-0.09972927
145	0x3c93d180	0.018044233
146	0x3df245d4	0.11829725
147	0xbca66080	-0.020309687
148	0x3d7e7388	0.062121898
149	0xbd49a794	-0.04923208
150	0x3d92866c	0.07154545
151	0xbe176a47	-0.14786635
152	0xbdf5d2c0	-0.12003088
153	0xbdd43242	-0.103611484
154	0x3e401834	0.18759233
155	0xbd60faac	-0.05492656
156	0xba121a00	-0.00055733323
157	0xbdca8aa3	-0.09889724
158	0x3e50aa6c	0.20377511
159	0x3e4c258c	0.19936198
160	0xbe1da478	-0.15394771
161	0xbe2972e2	-0.1654773
162	0xbe1e7025	-0.15472467
163	0xba810800	-0.0009844303
164	0xbd551f8c	-0.05203204
165	0xbe08d0b0	-0.13360858
166	0xbd95f10a	-0.07321365
167	0x3d1df6b4	0.038565353
168	0xbdda6ce1	-0.10665298
169	0x3d394374	0.045230344
170	0xbd3fbab4	-0.046808913
171	0xbdca91e5	-0.098911084
172	0x3ce5bbe8	0.028043702
173	0x3e2bdefa	0.16784278
174	0xbe0d50f3	-0.13800411
175	0x3c1b4b40	0.00947839
176	0xbd9a2978	-0.07527441
177	0x3e4d1da0	0.20030832
178	0xbe46503f	-0.19366549
179	0xbe4861e3	-0.19568591
180	0x3e4df7e0	0.20114088
181	0xbe043f30	-0.12914729
182	0x3d204c68	0.039135367
183	0xbc9051d8	-0.017617151
184	0xbd3020f4	-0.043000177
185	0xbd3abd4c	-0.045590684
186	0x3e04d260	0.12970877
187	0x3c1fd9d0	0.00975652
188	0xbe4b820a	-0.19873825
189	0xbdf6cc41	-0.12050677
190	0xbd8e8318	-0.06958598
191	0x3dd25e24	0.10271862
192	0xbe074413	-0.13209562
193	0x3e45178e	0.19247267
194	0xbd3a38ec	-0.04546444
195	0xbd162164	-0.036652938
196	0x3e23c820	0.1599431
197	0x3dd21d00	0.102594376
198	0x3e3146da	0.17312184
199	0x3df1d108	0.11807448
200	0xbd7da1c8	-0.061921865
201	0xbe0aae5c	-0.13543075
202	0xbc78d4d0	-0.015187457
203	0x3e2cfed2	0.16894081
204	0xbd8c4dfa	-0.0685081
205	0xbe41d77e	-0.1892986
206	0x3dab5e7c	0.08367631
207	0x3e4b7a60	0.19870901
208	0xbd6e0584	-0.05811073
209	0xbe2d137a	-0.16901961
210	0xbe3d98b1	-0.18515278
211	0x3d518638	0.05115339
212	0xbc7d3c20	-0.015456229
213	0xbdd31ba8	-0.103080094
214	0x3d29003c	0.04125999
215	0x3d9ec1bc	0.07751796
216	0x3e263d74	0.1623438
217	0x3e224826	0.15847835
218	0xbcfa4c80	-0.030554056
219	0xbe384f4b	-0.17998998
220	0xbe3ce0cd	-0.1844513
221	0x3e4329a8	0.1905886
222	0x3db8ccb0	0.09023416
223	0x3db63abc	0.088979214
224	0xbe34d9e9	-0.17661251
225	0x3e418f08	0.18902218
226	0x3e460442	0.19337562
227	0x3e3cb7fc	0.1842956
228	0xbe30542b	-0.17219608
229	0xbd9dbd18	-0.077020824
230	0xbe0fc230	-0.1403892
231	0x3e45f00e	0.19329855
232	0xbdb3a049	-0.08770806
233	0xbdbedc65	-0.09319381
234	0x3ddb0514	0.10694328
235	0xbdc16290	-0.094426274
236	0xbdcde5a4	-0.10053566
237	0xbc9244c0	-0.017855048
238	0xbca0bac8	-0.019620314
239	0xbe22d314	-0.15900832
240	0x3e2e4184	0.1701718
241	0xbdb868c6	-0.09004359
242	0x3d944988	0.072405875
243	0x3e35ce0e	0.17754385
244	0x3dd2d3e0	0.10294318
245	0x3cecbf68	0.028899863
246	0x3e31d94a	0.17368045
247	0x3ce0c918	0.027439639
248	0xbdc16970	-0.09443939
249	0x3e45bc5c	0.19310135
250	0x3d45e308	0.048312217
251	0xbe4bf09b	-0.19916002
252	0xbd6e074c	-0.058112428
253	0xbe0e6138	-0.13904274
254	0x3e3742fc	0.17896646
255	0xbd0a13c4	-0.033710256

rnn.weight_hh_l0 f4 [24, 24]
0	0xbdc77556	-0.09739177
1	0x3e05e864	0.13076931
2	0xbcd46c90	-0.025930673
3	0xbdc68ab2	-0.09694423
4	0xbe36046c	-0.17775124
5	0xbe3fc856	-0.18728766
6	0x3e4c225c	0.19934982
7	0xbd508568	-0.050908476
8	0x3c270c20	0.010195762
9	0x3d62acc8	0.05534056
10	0x3e0e146a	0.13874975
11	0x3e326556	0.17421469
12	0x3e298576	0.16554818
13	0xbe1adc99	-0.15123214
14	0xbd05f4c0	-0.032704115
15	0xbdf75fab	-0.12078794
16	0xbdeed9fa	-0.116626695
17	0x3d4653b8	0.048419684
18	0x3e4432fa	0.19160071
19	0xbe277302	-0.16352466
20	0x3dfd00e4	0.123536855
21	0xbdd8be3a	-0.10583158
22	0xbd22d96c	-0.03975813
23	0x3e25ea9e	0.1620278
24	0xbd3d196c	-0.046166822
25	0x3c984318	0.01858668
26	0xbe121d2d	-0.14268942
27	0x3e31edd6	0.17375883
28	0xbcd829c0	-0.026387095
29	0xbe18e0a6	-0.14929447
30	0x3d74d108	0.05976966
31	0xbe149e7c	-0.14513582
32	0xbe25dc84	-0.16197401
33	0x3c4bbc80	0.012435079
34	0x3e25b900	0.16183853
35	0xbd6c99d0	-0.057763875
36	0x3dc4c2b4	0.09607449
37	0x3e339e36	0.17540821
38	0x3e0aa30a	0.13538757
39	0xbddb4a71	-0.10707558
40	0xbcb74e00	-0.02237606
41	0xbd838d86	-0.06423478
42	0xbe28148e	-0.16414091
43	0x38b0e000	8.434057e-05
44	0x3e1d46be	0.15359017
45	0x3e301af2	0.17197779
46	0x3c9c0418	0.01904492
47	0x3d3de558	0.046361297
48	0xbdb4fb35	-0.088369764
49	0x3e1dc78e	0.15408155
50	0xbdadf3de	-0.084937796
51	0xbe1132d1	-0.14179541
52	0x3d00c0b8	0.03143379
53	0x3dfa9220	0.122349024
54	0xbe3c7418	-0.18403661
55	0x3e3cf33a	0.18452159
56	0x3d96625c	0.07342979
57	0xbe1271bc	-0.14301199
58	0xbd3419c0	-0.04396987
59	0x3e355822	0.17709401
60	0xbe205eab	-0.15661113
61	0xbd745eec	-0.059660837
62	0x3d891c64	0.06694868
63	0xbe371f3e	-0.17883012
64	0x3de52c18	0.11190051
65	0x3dd99cec	0.106256336
66	0x3e01a326	0.12659892
67	0xbe054319	-0.13013877
68	0x3e502ff0	0.20330787
69	0xbdf7cd3f	-0.120996945
70	0x3e50ad20	0.20378542
71	0xbe4898f6	-0.195896
72	0xbe3a3bbc	-0.1818685
73	0x3e006198	0.12537229
74	0x3caec3d8	0.02133362
75	0x3c40ef30	0.011775777
76	0xbde77f23	-0.11303546
77	0xbdaf5c32	-0.08562507
78	0xbd747688	-0.059683353
79	0xbe4b9efb	-0.19884865
80	0x3c2dcd70	0.010608062
81	0x3d13ded4	0.036101177
82	0xb9353800	-0.00017282367
83	0x3d86fff4	0.06591788
84	0x3e4654f2	0.19368342
85	0x3d5e4dc0	0.054273367
86	0xbd990904	-0.07472423
87	0xbdac0baa	-0.08400662
88	0xbe05bbf2	-0.13059977
89	0xbe10e616	-0.14150271
90	0xbd06a710	-0.032874167
91	0xbd13e040	-0.036102533
92	0x3db9f91c	0.09080717
93	0xbdb2b039	-0.08725018
94	0x3e26a24e	0.16272852
95	0xbe12aada	-0.14322987
96	0x3a181600	0.0005801618
97	0x3e3be522	0.18349126
98	0x3e4fd978	0.20297801
99	0xbdf2288e	-0.118241414
100	0x3d14eeac	0.036360428
101	0x3cc585e0	0.024111688
102	0xbdc4006f	-0.09570395
103	0xbd906ece	-0.07052384
104	0x3d627580	0.055287838
105	0xbe1158f0	-0.14194083
106	0x3d09f3a0	0.033679605
107	0x3db4e620	0.08832955
108	0xbda4bd53	-0.08043923
109	0x3e2d9f8c	0.16955394
110	0xbc5c1830	-0.013433501
111	0x3dbdac44	0.09261373
112	0x3e4eff38	0.20214546
113	0xbd7f9128	-0.06239429
114	0x3de32b74	0.110922724
115	0xbd6f259c	-0.058385476
116	0xbcf442d8	-0.02981703
117	0xbd0db18c	-0.03459315
118	0xbaa63780	-0.0012681335
119	0xbd9decb8	-0.07711166
120	0x3d43f818	0.047844023
121	0x3bfc08c0	0.007691473
122	0x3e047f64	0.1293922
123	0xbd293ac8	-0.041315824
124	0x3ca7afe0	0.020469606
125	0xbd9b8258	-0.075932205
126	0xbe2f0c15	-0.17094453
127	0x3da92b6c	0.08260235
128	0x3cd5f828	0.026119307
129	0xbda76bb5	-0.0817484
130	0xbd8d57f0	-0.06901538
131	0x3d5aa7f0	0.053382814
132	0xbd172dfc	-0.03690909
133	0x3e089772	0.13339022
134	0x3c3d6f80	0.011562228
135	0x3d9de954	0.077105194
136	0x3db62424	0.08893612
137	0xbd4d2624	-0.0500852
138	0x3db4dfbc	0.088317364
139	0x3e1a3ec0	0.15063
140	0x3c19e700	0.009393454
141	0x3d239e0c	0.039945647
142	0x3bf30a00	0.0074169636
143	0x3e10b886	0.1413289
144	0xbdb07f47	-0.08618026
145	0xbdde3885	-0.10850624
146	0x3db62a48	0.08894783
147	0xbe35ea71	-0.17765214
148	0x3b567940	0.003272608
149	0xbdc04179	-0.09387488
150	0x3e09f658	0.13472879
151	0xbe429bd4	-0.19004756
152	0x3dfd799c	0.12376711
153	0x3e4ecc68	0.20195162
154	0x3d292cd0	0.041302502
155	0xbc5ed300	-0.013600111
156	0x3e4dc07c	0.20092958
157	0xbdb2a72d	-0.087232925
158	0xbc85ff88	-0.016357198
159	0xbdb71085	-0.08938698
160	0xbce6d4a0	-0.02817756
161	0x3d35b728	0.044364125
162	0x3cdf56e0	0.027263105
163	0xbd1deabc	-0.03855394
164	0xbe50fd65	-0.20409162
165	0x3c2b3ed0	0.010451987
166	0xbbc62240	-0.0060465634
167	0x3cfb8ee0	0.030707777
168	0x3e2029fe	0.15641019
169	0x3e4b2c26	0.1984106
170	0xbdf804ff	-0.12110328
171	0xbc508950	-0.01272805
172	0xbda78007	-0.08178716
173	0xbe40a530	-0.18813014
174	0xbe1818fb	-0.1485328
175	0x3e442e54	0.19158298
176	0x3df3bf1c	0.119016856
177	0x3de08dd4	0.109645516
178	0x3de8538c	0.1134406
179	0xbe261082	-0.16217235
180	0x3caf9c90	0.02143696
181	0x3e428a78	0.18998134
182	0xbde94e45	-0.11391882
183	0x3e39f220	0.1815877
184	0x3d5bc1e0	0.05365169
185	0x3e130e90	0.14361024
186	0xbdb315fa	-0.08744426
187	0x3dc0ba0c	0.094104856
188	0xbe394be4	-0.18095356
189	0xbc545a40	-0.01296097
190	0x3d8b7098	0.06808585
191	0x3d7abd50	0.0612157
192	0x3e2ee98a	0.17081276
193	0x3e4d65e8	0.20058405
194	0x3e3e2906	0.18570337
195	0x3e0c5624	0.13704735
196	0x3e12f4cc	0.14351195
197	0xbcd7c2f8	-0.026338086
198	0xbe223635	-0.15840991
199	0xbd9b30ac	-0.07577643
200	0xbcbbba20	-0.0229159
201	0xbde1e816	-0.11030595
202	0x3dd5b16c	0.10434231
203	0x3d92bee0	0.07165313
204	0x3d06e7b8	0.032935828
205	0x3d49f790	0.04930836
206	0x3e379dea	0.17931333
207	0x3d9843fc	0.07434842
208	0xbe374cf6	-0.17900452
209	0xbe17b9d2	-0.14816979
210	0x3db840f4	0.08996764
211	0x3ce3e250	0.027817875
212	0x3dcbe0b0	0.09954965
213	0xbe50c16d	-0.20386286
214	0xbe40e6aa	-0.18837991
215	0x3e002db2	0.12517431
216	0x3e05b364	0.13056713
217	0xbe3d1b04	-0.18467337
218	0x3d9eaf28	0.07748252
219	0xbe2336ea	-0.15938917
220	0x3e1e4b7a	0.1545848
221	0x3d832dcc	0.064052194
222	0x3e4eadea	0.2018353
223	0xbe4e185a	-0.20126477
224	0xbe4938ba	-0.19650546
225	0x3e0d522a	0.13800874
226	0x3e399358	0.18122613
227	0x3e001074	0.12506276
228	0x3e0af6fe	0.13570783
229	0xbe300de0	-0.17192793
230	0x3e174b36	0.14774784
231	0xbe45593d	-0.19272323
232	0x3d3ac8d4	0.04560168
233	0xbe08eadc	-0.13370842
234	0xbda60bcc	-0.08107719
235	0x3d140bc0	0.03614402
236	0xbda45e10	-0.080257535
237	0xbd0449fc	-0.03229712
238	0xbe461e02	-0.19347385
239	0xbe451513	-0.1924632
240	0x3da1ef88	0.07907015
241	0xbdb0f332	-0.08640136
242	0xbdfe55c3	-0.124187015
243	0xbda4f422	-0.08054377
244	0xbe2ae407	-0.16688548
245	0xbe2717d8	-0.1631769
246	0x3dfa25b8	0.122142255
247	0x3dd47800	0.10374451
248	0x3cdebdb0	0.02719006
249	0xbde45c9f	-0.111504786
250	0x3d8b159c	0.06791231
251	0x3c163f20	0.009170324
252	0xbe156216	-0.14588198
253	0x3d33eb28	0.043925434
254	0x3e3e5322	0.185864
255	0xbe4d98b3	-0.20077781

rnn.bias_ih_l0 f4 [24]
0	0x3dd6f918	0.104967296
1	0xbda657ec	-0.081222385
2	0xbd7c1c54	-0.061550453
3	0x3e2ee5f6	0.1707991
4	0xbd6064e8	-0.05478373
5	0xbe113234	-0.14179307
6	0x3e0db9dc	0.13840431
7	0x3e0d8a8a	0.1382238
8	0xbd8315e2	-0.06400658
9	0xbd2726d4	-0.040808514
10	0xbe1a3be6	-0.15061912
11	0xbe2e8dcd	-0.1704628
12	0x3d9d34c4	0.0767608
13	0xbdb29615	-0.08720032
14	0x3e266702	0.16250232
15	0xbe275e1a	-0.1634449
16	0xbce72350	-0.02821508
17	0x3b906c00	0.004407406
18	0x3dd6da8c	0.10490903
19	0x3e292b38	0.16520393
20	0x3e0d8d28	0.13823378
21	0x3db805b8	0.08985466
22	0xbdbfe172	-0.09369172
23	0xbe1545fd	-0.1457748

rnn.bias_hh_l0 f4 [24]
0	0xbe3afea9	-0.18261208
1	0x3c25e570	0.010125503
2	0x3e4aba38	0.197976
3	0xbd1ecf3c	-0.038771853
4	0xbc0ccb00	-0.008593321
5	0xbe17e557	-0.1483358
6	0x3d805820	0.062668085
7	0x3e048466	0.12941131
8	0xbe4e1448	-0.20124924
9	0xbe132d86	-0.14372835
10	0x3e1ad336	0.15119633
11	0x3d45f500	0.048329353
12	0xbc508230	-0.012726352
13	0x3d15755c	0.036488876
14	0xbcfe3e00	-0.031035423
15	0xbe12198f	-0.14267562
16	0xbe435145	-0.1907397
17	0x3e0979e6	0.13425407
18	0xbcc6e258	-0.024277851
19	0xbd9b41ce	-0.075809106
20	0xbd57cee4	-0.05268754
21	0xbde40316	-0.11133401
22	0xbd77a2fc	-0.06045817
23	0xbe336db0	-0.17522311

rnn.weight_ih_l1 f4 [24, 24]
0	0x3e1c6bce	0.15275499
1	0x3daab4c0	0.083352566
2	0xbdd2d467	-0.10294419
3	0xbd8eaf4a	-0.069670275
4	0x3dbb8d1c	0.09157774
5	0xbd9ace08	-0.075588286
6	0x3d5c78e8	0.053826243
7	0x3d663600	0.056203842
8	0xbe039422	-0.12849477
9	0x3d517148	0.051133424
10	0x3c4c9f60	0.01248917
11	0x3e368eb4	0.17827874
12	0xbd9741ec	-0.073856205
13	0xbd56eedc	-0.052473888
14	0x3e34182e	0.17587349
15	0xbe2ab054	-0.16668826
16	0x3c71a020	0.014747649
17	0x3e4964ee	0.19667408
18	0xbdbb7045	-0.09152273
19	0x3e486302	0.19569018
20	0x3e397988	0.18112767
21	0x3e427668	0.18990481
22	0xbc9f90a8	-0.019478157
23	0x3e3d16dc	0.18465751
24	0xbdb6269e	-0.088940844
25	0xbd8f1972	-0.06987275
26	0x3d9e1e64	0.0772064
27	0x3d309f48	0.043120652
28	0x3de67570	0.11252868
29	0x3e46a382	0.19398311
30	0xbe02d8a0	-0.12777948
31	0x3dddde48	0.108334124
32	0x3d8bdd0c	0.06829271
33	0x3ddc8c40	0.10768938
34	0x3dc639d8	0.096790016
35	0xbd9c60e8	-0.07635671
36	0xbe2533e4	-0.16133076
37	0x3e274c86	0.16337785
38	0xbdee6287	-0.11639886
39	0x3e05a258	0.1305021
40	0xbe471fe1	-0.19445755
41	0xbd10a560	-0.035313964
42	0x3b0dc940	0.0021634847
43	0x3d10a9e8	0.035318285
44	0x3c872a80	0.016499758
45	0x3d83baa0	0.0643208
46	0xbcba3050	-0.022728115
47	0x3d4cc340	0.049990892
48	0x3e4ed894	0.20199805
49	0xbe073fb4	-0.13207895
50	0xbc369780	-0.011144519
51	0xbd9f93f0	-0.07791889
52	0x3e376730	0.17910457
53	0x3e32eea0	0.1747384
54	0xbbb665a0	-0.005566314
55	0xbd90e892	-0.07075609
56	0xbe0125f8	-0.1261214
57	0x3e159078	0.14605892
58	0xbc664e30	-0.014056727
59	0x3e44dc28	0.19224608
60	0x3dee6558	0.116404235
61	0x3e36f57a	0.1786708
62	0x3e255242	0.1614466
63	0xbe07d502	-0.1326485
64	0x3d74b9e0	0.059747577
65	0xbdad58bb	-0.084641896
66	0x3dd1c18c	0.10241994
67	0xbc965888	-0.018352762
68	0x3c90c2c8	0.017671004
69	0xbe108fee	-0.14117405
70	0xbe3acf30	-0.18243098
71	0x3d9d6cc8	0.07686764
72	0x3d424bb0	0.047435462
73	0x3c914030	0.017730802
74	0x3e0df7a6	0.13864002
75	0xbdae90bf	-0.08523702
76	0x3d946600	0.072460175
77	0xbde63e6b	-0.11242374
78	0x3d2d3d04	0.042294517
79	0xbd3ee0f4	-0.04660125
80	0x3e12626e	0.1429536
81	0x3e36c97e	0.178503
82	0x3e358aa2	0.17728665
83	0x3c1671a0	0.009182364
84	0x3df684dc	0.1203706
85	0xbe50d7d1	-0.20394827
86	0xbdf53939	-0.11973805
87	0x3d156ddc	0.036481723
88	0x3a953600	0.0011383891
89	0xbe241931	-0.16025235
90	0xbdb90839	-0.090347715
91	0xbdc3400f	-0.095337026
92	0xbe4f179a	-0.20223847
93	0x3c9f7a40	0.019467473
94	0x3e0e7d64	0.1391502
95	0x3da9ab70	0.08284652
96	0xbdc6a0a7	-0.09698611
97	0xbe3ff04d	-0.18744011
98	0xbe28a293	-0.16468267
99	0x3b782440	0.0037863404
100	0x3e0fca30	0.14041972
101	0xbda94c19	-0.082664676
102	0xbde37a50	-0.11107314
103	0xbddf026d	-0.108891346
104	0xbc90c248	-0.017670766
105	0xbe467ff3	-0.19384746
106	0xbe387389	-0.18012823
107	0x3e4dc2aa	0.2009379
108	0xbdc75f7c	-0.09735009
109	0xbd16ccfc	-0.036816582
110	0xbd5fb2e8	-0.054613978
111	0xbe37a0cc	-0.17932433
112	0xbd1365bc	-0.035985693
113	0x3d7ff120	0.062485814
114	0xbda9c038	-0.08288616
115	0xbc0e8950	-0.00869973
116	0xba7ff700	-0.0009764284
117	0xbe501563	-0.20320658
118	0x3e17e68a	0.14834037
119	0x3e28d7dc	0.16488594
120	0x3e0e835c	0.13917297
121	0xbd894924	-0.067034036
122	0x3dda74a4	0.10666779
123	0xbe43d6a5	-0.19124849
124	0xbd4ed694	-0.050497606
125	0xbd2a0c50	-0.04151565
126	0xbd93a206	-0.07208638
127	0x3daf9458	0.08573216
128	0xbdbe7c6e	-0.09301077
129	0xbcc1d010	-0.023658782
130	0xbd716cb0	-0.058941543
131	0xbe444a42	-0.19168952
132	0xbd0a12a8	-0.0337092
133	0xbe312463	-0.17299037
134	0x3df3c3b8	0.11902565
135	0x3ddf6e24	0.109096795
136	0x3e43cfaa	0.19122186
137	0xbd8c6190	-0.06854546
138	0x3c2a1190	0.010380164
139	0x3d23c860	0.039986014
140	0x3e50a698	0.2037605
141	0x3e3f97ea	0.18710294
142	0xbdd85aff	-0.10564231
143	0xbe31dbbc	-0.17368978
144	0xbe3c63dd	-0.1839747
145	0xbdc95073	-0.098297976
146	0x3e2fbe6c	0.17162484
147	0x3d8c6694	0.06855503
148	0x3e49ad38	0.19694984
149	0x3e1aeeac	0.15130109
150	0x3b41f100	0.002959311
151	0xbe018c22	-0.12651113
152	0x3e4c1c78	0.19932735
153	0x3e27ac1e	0.16374251
154	0x3db4fd7c	0.08837411
155	0xbde45d08	-0.11150557
156	0x3e24aa02	0.16080478
157	0x3c983208	0.018578544
158	0x3e0a3694	0.13497382
159	0x3dae7a88	0.08519465
160	0x3dddfc70	0.10839164
161	0xbe3769ac	-0.17911404
162	0xbde7cc7c	-0.11318299
163	0x3dfabb74	0.12242785
164	0xbd2e3024	-0.04252638
165	0xbe35d88c	-0.17758387
166	0x3e3e15e2	0.18563035
167	0xbb90a5c0	-0.00441429
168	0x3e289d98	0.16466367
169	0xbe236041	-0.15954687
170	0x3d8fee44	0.070278674
171	0xbd9d7706	-0.076887175
172	0xbdafeb98	-0.08589858
173	0xbd2e6234	-0.042574123
174	0xbd9abcf6	-0.07555573
175	0x3de5129c	0.1118519
176	0xbd1edb58	-0.0387834
177	0x3e1e7c2c	0.15477055
178	0x3d3ec840	0.046577692
179	0xbd013068	-0.031540304
180	0xbdf17699	-0.11790199
181	0xbe3f6598	-0.18691099
182	0xbd73e828	-0.059547573
183	0xbe418fe1	-0.18902542
184	0xbd1ae748	-0.037818223
185	0x3b5aa540	0.0033362657
186	0xbc578620	-0.0131545365
187	0xbdcd59f5	-0.100269236
188	0x3e11134a	0.14167514
189	0x3deb6f6c	0.114958614
190	0xbd4dfe7c	-0.050291523
191	0xbda52c2a	-0.08065064
192	0x3e036928	0.12833083
193	0x3e35daee	0.17759296
194	0xbe3f63c0	-0.18690395
195	0xbd34a540	-0.044102907
196	0xbc9b2eb0	-0.01894316
197	0xbd975bb4	-0.07390538
198	0x3e3271e8	0.17426264
199	0xbcf70030	-0.030151457
200	0x3e313850	0.17306638
201	0x3a844400	0.0010091066
202	0xbcb56250	-0.022141606
203	0xbdf3d8da	-0.119065955
204	0xbd8b00c8	-0.067872584
205	0x3d86b4f8	0.06577486
206	0x3db8eae4	0.09029177
207	0xbbedfc80	-0.0072627664
208	0x3e472a8c	0.19449824
209	0xbe10abfa	-0.14128104
210	0x3da048d8	0.07826394
211	0x3e3c4316	0.18384966
212	0xbd1161bc	-0.035493597
213	0x3e25f204	0.16205603
214	0x3b5c8500	0.003364861
215	0xbe1c86a1	-0.15285732
216	0xbde558d8	-0.11198586
217	0x3d9b9a74	0.07597819
218	0xbdb4e8b9	-0.08833451
219	0x3d4916e8	0.04909411
220	0x3e4dbb6c	0.20091027
221	0x3d8e008c	0.06933698
222	0xbc9c7fd8	-0.01910393
223	0x3d50fc48	0.051021844
224	0xbdf0dad0	-0.11760485
225	0xbe2fa1e1	-0.17151596
226	0xbe1d1f62	-0.15344003
227	0xbe2f644f	-0.17128108
228	0x3d2b9520	0.041890264
229	0x3d22db58	0.039759964
230	0xbdb1a802	-0.08674623
231	0xbe4c74c3	-0.19966416
232	0x3de27528	0.11057502
233	0xbded340d	-0.115821935
234	0xbd0b9570	-0.03407806
235	0xbe2f431a	-0.17115441
236	0xbdebd81f	-0.11515831
237	0x3dae6464	0.08515242
238	0xbe42c0a3	-0.19018798
239	0xbdee62f6	-0.11639969
240	0x3e1cb602	0.15303805
241	0xbdd664fe	-0.104684815
242	0xbdadf8f1	-0.084947474
243	0xbd6ac0bc	-0.057312712
244	0x3db2b29c	0.08725473
245	0xbe091ce2	-0.13389924
246	0x3ca7a988	0.020466581
247	0x3daabb30	0.083364844
248	0xbc72c750	-0.014818028
249	0x3d172e60	0.03690946
250	0xbe1f73ea	-0.15571561
251	0x3dbcff9c	0.09228441
252	0x3d9c3c78	0.07628721
253	0xbcd1bee8	-0.025603727
254	0xbe2cd5c4	-0.1687842
255	0x3da73550	0.081644654

rnn.weight_hh_l1 f4 [24, 24]
0	0xbe457cdc	-0.19285911
1	0x3e0db396	0.13838038
2	0xbca90fe0	-0.020637453
3	0xbe34b12c	-0.1764571
4	0x3e255fa2	0.16149762
5	0xbde0f099	-0.1098339
6	0x3d9401bc	0.07226893
7	0x3e4f4a76	0.20243248
8	0x3c1ad1c0	0.009449422
9	0x3d708c00	0.058727264
10	0x3da61a10	0.0811044
11	0x3e1dfa52	0.15427521
12	0xbd804420	-0.06262994
13	0xbdeb3e19	-0.114864536
14	0xbc82dc28	-0.01597412
15	0x3e23777e	0.15963551
16	0x3c8fc710	0.017550975
17	0x3e113b4c	0.14182776
18	0xbac6eb80	-0.0015176386
19	0x3d8043d8	0.0626294
20	0x3be89520	0.007097855
21	0x3bb59280	0.005541146
22	0xbe46e916	-0.19424853
23	0xbe36bc34	-0.17845231
24	0x3c8b0248	0.016968861
25	0x3dcee7bc	0.101027936
26	0x3e0c696e	0.13712093
27	0x3c111c10	0.008856788
28	0x3db03730	0.08604276
29	0x3daed7ac	0.0853723
30	0xbe347090	-0.17621064
31	0xbe37b7a9	-0.17941155
32	0xbe2210b5	-0.15826686
33	0x3b65fec0	0.003509447
34	0xbe042b34	-0.12907106
35	0xbd85c7c0	-0.0653224
36	0xbcfa2eb8	-0.030539855
37	0x3da31b0c	0.07964143
38	0x3d41db08	0.047328025
39	0x3e41e7dc	0.18936104
40	0x3e3c8974	0.18411809
41	0xbe055904	-0.13022238
42	0xba289300	-0.0006430596
43	0x3d0a1158	0.033707947
44	0x3e367a14	0.17820007
45	0xbd818fb4	-0.06326237
46	0xbda44b07	-0.08022123
47	0xbe046832	-0.12930372
48	0x3e1a0562	0.15041116
49	0xbd6cdf14	-0.05782993
50	0xbd9c91a0	-0.07644963
51	0x3e0d607c	0.13806337
52	0x3e4055e2	0.18782762
53	0xbc0cefb0	-0.008602068
54	0xbe135778	-0.14388835
55	0x3e2a4f16	0.16631731
56	0xbd8ef94c	-0.06981143
57	0xbdc0a567	-0.09406548
58	0xbe12f2c1	-0.14350416
59	0xbdc90d99	-0.09817047
60	0xbe23b31a	-0.1598629
61	0xbdf14d61	-0.11782337
62	0xbe3e694b	-0.18594854
63	0xbd288448	-0.04114178
64	0x3da81604	0.08207324
65	0xbe1eacbf	-0.15495585
66	0xb9957600	-0.00028507411
67	0xbd9a28d4	-0.075273186
68	0x3dca3550	0.0987345
69	0x3e350a16	0.17679629
70	0xbcddab78	-0.027059302
71	0xbdd2670f	-0.10273563
72	0xbe209b1c	-0.1568417
73	0xbdf59c7e	-0.11992739
74	0x3d716638	0.058935374
75	0x3d3fd5f8	0.046834916
76	0x3de12158	0.10992688
77	0xbcf87818	-0.030330703
78	0x3dd6ce64	0.10488585
79	0xbe3a3937	-0.18185888
80	0x3d60c1f8	0.054872483
81	0x3e4aeb18	0.19816244
82	0xbe4edeaf	-0.20202135
83	0xbdd904f1	-0.105966456
84	0x3e05cf68	0.130674
85	0xbd02b8d4	-0.031914547
86	0xbdded638	-0.10880703
87	0x3dff0904	0.124528915
88	0x3c602f50	0.013683155
89	0x3c02fd30	0.007994935
90	0xbd7df32c	-0.061999485
91	0x3e1d7c7e	0.15379521
92	0x3de7e39c	0.1132271
93	0x3d15c76c	0.036567137
94	0x3cff31d8	0.031151697
95	0x3dd82b3c	0.10555121
96	0x3e023936	0.12717137
97	0xbdab7bb1	-0.08373202
98	0xbcb73500	-0.02236414
99	0x3db78820	0.08961511
100	0xbdca9387	-0.0989142
101	0x3e437272	0.19086626
102	0xbe0f2e42	-0.1398249
103	0x3dc0e7fc	0.094192475
104	0xbe1624d8	-0.14662492
105	0x3d86387c	0.06553742
106	0x3e11fe62	0.14257196
107	0x3cc994c8	0.024607077
108	0xbca79988	-0.020458952
109	0x3e04ebb0	0.12980533
110	0xbe161652	-0.14656952
111	0xbe0d054f	-0.13771556
112	0xbe322651	-0.17397429
113	0xbe00a9fc	-0.12564844
114	0x3bad99e0	0.0052978843
115	0xbdbd8fb3	-0.09255924
116	0x3d3a44d4	0.045475796
117	0x3be1b600	0.006888151
118	0x3e2df606	0.16988382
119	0xbdb544ae	-0.0885099
120	0xbd64ba1c	-0.05584155
121	0x3e0a3f24	0.13500649
122	0xbd5368e4	-0.051613703
123	0x3e481e1e	0.19542739
124	0xbda60a26	-0.081074044
125	0xbb128280	-0.0022355616
126	0xbd461804	-0.048362747
127	0x3dc309c4	0.09523347
128	0x3da02e88	0.07821375
129	0xbdde9f18	-0.108701885
130	0x3e09bbea	0.1345059
131	0xbc548240	-0.012970507
132	0xbd536dd8	-0.051618427
133	0xbb86ec40	-0.0041175187
134	0x3e117800	0.14205933
135	0x3e4d0a16	0.20023379
136	0x3dcb6adc	0.09932491
137	0x3d124d34	0.035718158
138	0x3e086a68	0.13321841
139	0xbdaed041	-0.08535815
140	0xbdda78e5	-0.1066759
141	0xbd7173a0	-0.05894816
142	0xbe0748e7	-0.13211404
143	0x3db3bf34	0.087767035
144	0x3c9ed728	0.019389704
145	0xbd8f072a	-0.06983788
146	0xbca9c3a0	-0.020723164
147	0xbb849f80	-0.004047334
148	0x3e33390c	0.1750223
149	0x3e3a9682	0.18221477
150	0xbe20ea82	-0.15714458
151	0x3d993670	0.07481086
152	0x3da16d74	0.07882205
153	0x3d9fd8ec	0.078050464
154	0xbce3f8b8	-0.02782856
155	0x3d5118c8	0.051049024
156	0x3d526430	0.051365077
157	0x3e4b7124	0.19867378
158	0xbe485565	-0.19563825
159	0xbd9ea36e	-0.077460155
160	0xbe0ca194	-0.13733512
161	0xbdcac824	-0.09901455
162	0x3d242828	0.04007736
163	0x3dfef5a8	0.12449199
164	0xbe1e10f4	-0.15436155
165	0x3e07f37c	0.13276476
166	0x3e2e98f4	0.17050534
167	0xbdce0ed6	-0.100614235
168	0x3d11ee30	0.035627544
169	0xbdd69d96	-0.10479276
170	0x3d331474	0.043720677
171	0xbdc1d0d7	-0.09463661
172	0xbda2da1a	-0.07951756
173	0xbe0bec6e	-0.1366441
174	0xbe2e4dee	-0.17021915
175	0x3e26cdae	0.16289398
176	0xbcd32b70	-0.025777549
177	0xbbb98f60	-0.0056628436
178	0xbdd00c85	-0.10158638
179	0x3e11b094	0.14227515
180	0xbdef4750	-0.11683524
181	0xbda91578	-0.08256048
182	0xbe232aa0	-0.15934229
183	0xbe2fc373	-0.17164402
184	0x3e3991c2	0.18122008
185	0xbe216822	-0.1576238
186	0xbce6dbf8	-0.028181061
187	0xbd7203f8	-0.059085816
188	0x3d99200c	0.074768156
189	0x3d5fa100	0.0545969
190	0xbe203c39	-0.15647973
191	0x3e3bb7e4	0.18331867
192	0xbe5036f7	-0.20333467
193	0x3ca56398	0.020189092
194	0xbc8bb368	-0.017053321
195	0xbd41c1b0	-0.047303855
196	0x3e0e713c	0.13910383
197	0x3e307b52	0.17234543
198	0x3cd9d318	0.026589915
199	0xbd93a74e	-0.07209645
200	0x3e1b65ee	0.15175602
201	0x3e0352aa	0.12824503
202	0x3d162b44	0.036662355
203	0xbd64ae4c	-0.055830285
204	0x3c0cff90	0.008605853
205	0x3e3a4d12	0.18193462
206	0x3cb556e0	0.022136152
207	0xbd24c3c0	-0.040225744
208	0xbe30f875	-0.17282279
209	0xbde00612	-0.10938658
210	0x3e16f6ba	0.14742556
211	0xbbeb88e0	-0.0071879476
212	0xbc5eb640	-0.0135932565
213	0x3da2c550	0.079477906
214	0xbe0985a0	-0.1342988
215	0xbc61ebd0	-0.013789132
216	0xbd6b279c	-0.05741082
217	0x3ddabb04	0.10680202
218	0x3e2a1ba8	0.16612113
219	0x3e033f4a	0.12817112
220	0x3e1bd6a0	0.15218592
221	0xbe3acdeb	-0.18242614
222	0xbd9469d6	-0.07246749
223	0x3cc60370	0.024171561
224	0xbe3188e8	-0.17337382
225	0x3d62cf20	0.05537331
226	0xbe0902c6	-0.13379964
227	0x3db32354	0.08746973
228	0x3e292c60	0.16520834
229	0xbe32cf04	-0.17461783
230	0x3e2f263a	0.17104426
231	0x3dc30f9c	0.095244616
232	0xbe09f05b	-0.13470595
233	0x3e481280	0.19538307
234	0xbe350852	-0.17678955
235	0xbe0cb7ee	-0.13742039
236	0xbdcff490	-0.101540685
237	0xbc295a90	-0.010336533
238	0x3d162328	0.03665462
239	0xbd755e5c	-0.05990444
240	0xbe461f3b	-0.19347851
241	0xbcc105e0	-0.023562372
242	0x3e1e96d6	0.15487227
243	0x3e20ef48	0.15716279
244	0x3dd14548	0.102182925
245	0x3cf2c860	0.029636562
246	0x3d4fbf70	0.05071968
247	0xbe21234f	-0.15736125
248	0x3da94890	0.08265793
249	0xbe5006fd	-0.20315166
250	0xbdaca3f7	-0.08429711
251	0xbd5bb904	-0.05364324
252	0x3e197e10	0.14989495
253	0xbbc2fb20	-0.0059503466
254	0xbdbe6c89	-0.09298045
255	0x3d121298	0.035662264

rnn.bias_ih_l1 f4 [24]
0	0xbe36231b	-0.17786829
1	0xbe3fb75e	-0.18722293
2	0x3db3b558	0.08774823
3	0xbcbd7c00	-0.023130417
4	0xbdfc2da2	-0.12313391
5	0xbbaa64c0	-0.0051999986
6	0xbe3ec83e	-0.18631074
7	0x3d5def30	0.054183185
8	0x3dc6880c	0.09693918
9	0x3e4ab6d0	0.197963
10	0xbe2a4918	-0.16629446
11	0xbccac3b0	-0.024751514
12	0x3de2df20	0.11077714
13	0x3e3f8fbe	0.18707177
14	0xbe14b6d0	-0.14522862
15	0x3db1a764	0.08674505
16	0x3dac98a8	0.08427554
17	0x3dfc0724	0.123060495
18	0xbe101a9b	-0.14072649
19	0x3e152990	0.14566636
20	0xbdb615f5	-0.08890907
21	0xbe00a9f7	-0.12564836
22	0x3d26031c	0.04053031
23	0x3e311268	0.17292178

rnn.bias_hh_l1 f4 [24]
0	0xbe0a6b6c	-0.1351754
1	0x3ddf32c0	0.10898352
2	0xbcbf8218	-0.023377463
3	0x3d8574bc	0.06516406
4	0x3e230d82	0.15923122
5	0x3d630420	0.055423856
6	0xbe2d859b	-0.16945498
7	0xbd7bba34	-0.061456874
8	0x3d25f1fc	0.040513977
9	0xbe305474	-0.17219716
10	0x3d0b000c	0.03393559
11	0xbde07a55	-0.10960833
12	0xbd263234	-0.04057522
13	0x3d958d64	0.07302359
14	0xbe2839d7	-0.16428314
15	0xbe063224	-0.13105065
16	0x3dbeac34	0.09310189
17	0xbe4ebb7c	-0.20188707
18	0x3e0fd8e8	0.14047587
19	0xbe212c63	-0.15739588
20	0xbb576700	-0.003286779
21	0x3d2ba2e0	0.041903377
22	0x3da4f538	0.08054584
23	0xbe01bbe2	-0.12669328

rnn.weight_ih_l2 f4 [24, 24]
0	0x3ce107e0	0.027469575
1	0x3db40164	0.08789328
2	0x3e3347f8	0.17507923
3	0xbe1d4cdc	-0.15361351
4	0xbdcfd745	-0.10148481
5	0x3d739140	0.059464693
6	0xbbd6ba00	-0.0065529346
7	0xbe0d0df2	-0.13774851
8	0xbe2fecaa	-0.17180124
9	0xbe399907	-0.18124782
10	0xbe124378	-0.1428355
11	0xbdb1fdb1	-0.08690966
12	0xbe112543	-0.1417437
13	0xbe375d6c	-0.17906731
14	0x3c828770	0.015933722
15	0x3df52a78	0.11970991
16	0xbdc51a75	-0.09624187
17	0x3ca736f8	0.020411953
18	0xbb24e9c0	-0.002516374
19	0x3dc368a4	0.09541443
20	0xbe10f57f	-0.1415615
21	0x3c1ec770	0.009691104
22	0x3e4319e6	0.19052848
23	0x3e1539ba	0.14572802
24	0xbe4f2a95	-0.20231088
25	0xbcfbbae0	-0.030728757
26	0x3af96700	0.0019027889
27	0xbd8a098a	-0.06740101
28	0xbe095345	-0.13410671
29	0xbe11719c	-0.14203495
30	0x3e0ae398	0.13563383
31	0xbd87574c	-0.066084474
32	0xbc573960	-0.013136238
33	0x3d7555d8	0.05989632
34	0xbe004bdd	-0.1252894
35	0x3c950b80	0.01819396
36	0x3df8a8bc	0.121415585
37	0xbdf46d3d	-0.11934898
38	0x3d734020	0.059387326
39	0xbbe47600	-0.0069720745
40	0x3de5db5c	0.1122348
41	0x3e0ae448	0.13563645
42	0x3d5dd1f0	0.05415529
43	0x3bca1b00	0.0061677694
44	0xbe33eefb	-0.17571633
45	0x3da67268	0.0812729
46	0x3dfede5c	0.124447554
47	0xbd97d852	-0.07414307
48	0xbe4f8c48	-0.20268357
49	0x3e296290	0.16541505
50	0xbd444120	-0.04791367
51	0x3d274768	0.040839583
52	0xbd6b0858	-0.057381004
53	0x3e054cd6	0.13017592
54	0x3e4bdb1e	0.19907805
55	0x3e030616	0.1279529
56	0xbd850a66	-0.06496124
57	0x3e127b36	0.14304814
58	0x3dcbfa64	0.099598676
59	0x3ca32460	0.019914806
60	0xbe285d36	-0.16441807
61	0xbdb38197	-0.08764952
62	0xbe4ece01	-0.20195772
63	0x3e0bcd3c	0.1365251
64	0x3e4e9e12	0.20177487
65	0x3df3848c	0.11890516
66	0x3d8592ec	0.06522164
67	0x3d459a70	0.048242986
68	0x3e4936f2	0.19649866
69	0xbdd3f0d0	-0.10348666
70	0xbd8c5948	-0.068529665
71	0xbe3bad67	-0.18327866
72	0xbca595f0	-0.020213097
73	0x3c6568b0	0.01400201
74	0x3d64df40	0.05587697
75	0xbe116a02	-0.14200595
76	0xbcc18110	-0.023621112
77	0xbe2c3c3a	-0.1681985
78	0xbe2a0719	-0.1660427
79	0x3cd9f570	0.026606292
80	0xbe4c09d5	-0.19925626
81	0x3d5ea218	0.054353803
82	0xbe408d44	-0.18803889
83	0xbe117196	-0.14203486
84	0xbd2d7c64	-0.042354956
85	0xbe477785	-0.19479187
86	0x3e28d058	0.16485727
87	0x3e2b43b2	0.16725042
88	0xbdda5b91	-0.10661996
89	0x3d2f250c	0.04275994
90	0x3dd5dcac	0.104424804
91	0x3d84d808	0.06486517
92	0xbcdfffb8	-0.027343616
93	0xbe452728	-0.19253218
94	0x3e17fd24	0.14842659
95	0xbe375561	-0.17903663
96	0xbd1ad818	-0.03780374
97	0x3c4f74d0	0.012662128
98	0xbd89ae22	-0.06722666
99	0xbd98e704	-0.07465938
100	0xbe34a70b	-0.17641847
101	0x3c3845b0	0.011247084
102	0xbcbdde50	-0.023177296
103	0x3e363a14	0.17795593
104	0xbd89a132	-0.06720199
105	0x3e218ea0	0.15777063
106	0x3c1e5290	0.009663239
107	0xbdbbd21c	-0.091709346
108	0xbd46d6a0	-0.048544526
109	0xbcbdc2f0	-0.023164243
110	0x3b0a9100	0.0021143556
111	0xbd09bf98	-0.033629984
112	0x3d782138	0.060578555
113	0x3e2c2248	0.16809952
114	0x3d036b84	0.032084957
115	0x3d976bf4	0.07393637
116	0x3e011376	0.1260508
117	0x3d3438a8	0.043999344
118	0x3dc0b504	0.09409526
119	0x3ddb4954	0.107073456
120	0x3e43a5fe	0.1910629
121	0xbe3ec409	-0.18629469
122	0x3d8f0d44	0.06984952
123	0xbc1789d0	-0.009249166
124	0xbd162778	-0.036658734
125	0xbda12ca6	-0.07869844
126	0x3dfb5464	0.122719556
127	0x3e3f3634	0.1867302
128	0xbe2a94e8	-0.16658366
129	0x3de1dcac	0.11028418
130	0x3e1021c0	0.14075375
131	0x3d122090	0.035675585
132	0x3b1d9580	0.0024045408
133	0x3e20d946	0.15707883
134	0x3bc64fc0	0.0060519874
135	0xbd508ab4	-0.050913528
136	0xbc76f6b0	-0.015073463
137	0x3d861fb8	0.065490186
138	0x3d514e80	0.051100254
139	0xbc347080	-0.01101315
140	0x3d83f694	0.064435154
141	0x3d612d50	0.054974854
142	0xbe295231	-0.1653526
143	0x3d5055b8	0.050862998
144	0x3dffc778	0.124892175
145	0x3cbfc4f0	0.023409337
146	0xbc98a1b0	-0.018631786
147	0x3e201e48	0.15636551
148	0xbe369e9d	-0.17833944
149	0xbdbecfc4	-0.09316972
150	0xbdbcf3fa	-0.09226222
151	0x3e349b5e	0.17637393
152	0xbe4a2bf6	-0.19743332
153	0x3ca5d7f0	0.020244569
154	0xbe4a7a7a	-0.19773284
155	0xbbdbf380	-0.006712377
156	0x3d9bd24c	0.0760847
157	0xbd438628	-0.047735363
158	0x3e4ae7f8	0.19815052
159	0x3a2a5700	0.00064979494
160	0xbdd521f1	-0.104068644
161	0x3d579980	0.052636623
162	0x3dd9692c	0.10615763
163	0xb9d49e00	-0.0004055351
164	0x3e32d058	0.1746229
165	0xbe044b4a	-0.12919345
166	0x3db25f10	0.08709538
167	0x3ded61b0	0.11590898
168	0x3dcfa3d0	0.10138667
169	0xb89d0800	-7.4878335e-05
170	0x3d6eaca8	0.058270127
171	0xbe23fb24	-0.16013771
172	0xbe240838	-0.1601876
173	0xbc4fdfe0	-0.012687653
174	0xbcd19480	-0.025583506
175	0x3e1b347e	0.15156743
176	0x3e17c6fc	0.14822
177	0x3e0dba46	0.13840589
178	0xbdbf7a9e	-0.09349559
179	0xbe241745	-0.16024502
180	0xbe44103f	-0.19146822
181	0x3d974ba4	0.07387474
182	0xbe3c58d8	-0.18393266
183	0xbe50a8bc	-0.20376867
184	0xbdd345b5	-0.1031603
185	0xbe307aa2	-0.1723428
186	0xbda4bf37	-0.08044284
187	0xbe0396fc	-0.12850565
188	0xbdd678e5	-0.104722776
189	0x3e46b930	0.19406581
190	0xbd1d8f14	-0.038466528
191	0x3e2d648c	0.16932887
192	0x3b946800	0.0045289993
193	0xbcd70850	-0.02624908
194	0xbd74cb04	-0.059763923
195	0xbe156a59	-0.1459135
196	0xbe27f070	-0.16400313
197	0x3e10bb70	0.14134002
198	0xbd80d330	-0.06290281
199	0xbe4bcb16	-0.1990169
200	0x3e3fd3a4	0.18733078
201	0x3b782580	0.0037864149
202	0xbe0bde30	-0.13658977
203	0xbe244daa	-0.16045251
204	0xbe2f88d6	-0.17142043
205	0xbe374873	-0.17898731
206	0x3e3d2644	0.18471628
207	0x3e101ebe	0.14074227
208	0x3c88c4a8	0.016695336
209	0xbe322522	-0.17396978
210	0xbd5aae74	-0.053389028
211	0xbe445af0	-0.19175315
212	0x3d901130	0.07034528
213	0xbd5dffbc	-0.054198965
214	0xbd32eb50	-0.043681443
215	0xbd826fa4	-0.0636895
216	0x3dc40068	0.0957039
217	0x3de248b8	0.11049026
218	0x3d372774	0.04471536
219	0xbcd16638	-0.025561437
220	0xbca54088	-0.020172372
221	0xbb69c100	-0.0035668015
222	0xbe1ba6ea	-0.15200391
223	0x3e4bf55e	0.19917819
224	0xbdb44bca	-0.08803518
225	0x3df338e0	0.118760824
226	0xbdea5b19	-0.11443157
227	0x3ab39c00	0.0013703108
228	0x3d8f1bd0	0.06987727
229	0xbe3febc4	-0.18742281
230	0x3dbfc1fc	0.093631715
231	0xbe1ffee4	-0.15624577
232	0x3ce958e0	0.028484762
233	0xbd25cbec	-0.04047768
234	0x3defa244	0.117008716
235	0x3e4b265a	0.19838849
236	0x3d3c6d38	0.046002597
237	0xbbbefda0	-0.0058285743
238	0xbdcf1e6c	-0.101132244
239	0x3d9bdcdc	0.07610485
240	0xbdc93710	-0.098249555
241	0x3dacae5c	0.08431694
242	0xbdb5315a	-0.08847304
243	0x3e0dc888	0.13846028
244	0x3e205408	0.15657055
245	0x3e002b7a	0.12516585
246	0x3b0600c0	0.0020447224
247	0x3dc1ddc8	0.094661295
248	0xbe3e77fc	-0.18600458
249	0x3e29831a	0.16553918
250	0xbd593a20	-0.053033948
251	0x3d9866c8	0.07441479
252	0xbd0d952c	-0.03456609
253	0xbd8c5fde	-0.06854223
254	0xbdc4511a	-0.095857814
255	0x3e06d320	0.13166475

rnn.weight_hh_l2 f4 [24, 24]
0	0x3d69a120	0.057038426
1	0x3e09b14a	0.13446537
2	0xbdf76c49	-0.12081201
3	0xbdf5899f	-0.1198914
4	0xbda8de58	-0.08245534
5	0x3c6dc6a0	0.014512688
6	0x3d8da8a8	0.06916934
7	0xbdf03b75	-0.117300905
8	0xbc9d7020	-0.019218504
9	0xbd10813c	-0.035279498
10	0x3e3eb86a	0.18625036
11	0xbd96c3ae	-0.07361542
12	0x3e4a8ee2	0.19781068
13	0xbe003340	-0.1251955
14	0xbdac42bd	-0.08411167
15	0xbe1d371d	-0.15353055
16	0x3e19fcc6	0.15037832
17	0xbe0fbda0	-0.1403718
18	0x3dad0b10	0.08449376
19	0xbd999dcc	-0.075008005
20	0x3e504b22	0.20341161
21	0x3cebdf70	0.028793067
22	0xbe3584ea	-0.17726484
23	0x3d0fe504	0.035130516
24	0x3ccb4d98	0.024817273
25	0xbe4a2b3d	-0.19743057
26	0x3d27cbc4	0.04096581
27	0x3e476d98	0.194754
28	0x3d709b88	0.058742076
29	0xba8e4880	-0.0010855347
30	0xbd2d52e8	-0.042315394
31	0x3d5e2ef0	0.05424398
32	0xbdba3f00	-0.090940475
33	0x3e4dd6b8	0.2010144
34	0x3e34b118	0.17645681
35	0x3dc34c1c	0.09536001
36	0xbd9bb69a	-0.07603188
37	0xbe444366	-0.19166335
38	0xbdf0a86c	-0.11750874
39	0x3e4b3b6a	0.19846883
40	0xbe3fdb9c	-0.18736118
41	0xbe4793f5	-0.19490035
42	0xbc710a80	-0.014711976
43	0x3d850064	0.06494215
44	0xbe500a02	-0.20316318
45	0xbe420fc5	-0.18951328
46	0x3a917600	0.0011097789
47	0xbd8c3a1a	-0.068470195
48	0x3e119f4a	0.1422092
49	0x3d700d20	0.058606267
50	0xbe356fd2	-0.17718437
51	0xbe3c64fd	-0.18397899
52	0x3e0f8c08	0.14018261
53	0xbd1441c0	-0.036195517
54	0xbdb6e09a	-0.08929558
55	0x3d83ad34	0.0642952
56	0xbd245250	-0.04011756
57	0x3dc7edf8	0.09762186
58	0x3d540658	0.051763862
59	0xbdb500c5	-0.088380374
60	0xbe2787a4	-0.16360337
61	0x3de24e58	0.11050099
62	0xbdfb2aad	-0.12263999
63	0xbcb8f350	-0.022576958
64	0x3ce4a290	0.027909547
65	0xbdf34a01	-0.118793495
66	0x3de3b858	0.11119145
67	0xbe130638	-0.14357841
68	0x3d4d5988	0.05013421
69	0x3cb2d778	0.02183126
70	0x3d9962c0	0.07489538
71	0xbe4d238e	-0.20033094
72	0x3c413070	0.011791334
73	0x3dcbccd0	0.09951174
74	0xbe05d1f7	-0.13068376
75	0x3d4ee460	0.050510764
76	0x3a51ab00	0.0007998198
77	0x3e315324	0.17316872
78	0xbd310a38	-0.043222636
79	0x3ab6c980	0.001394555
80	0xbdb5d2ee	-0.08878122
81	0xbd4e0eb4	-0.05030699
82	0x3d6f5aa8	0.058436066
83	0xbe49975f	-0.1968665
84	0x3e1e9106	0.1548501
85	0x3e164f0a	0.14678589
86	0x3db10a70	0.08644569
87	0x3e1c7964	0.15280682
88	0xbd8221d8	-0.063541114
89	0x3d3e70f0	0.046494424
90	0x3c2a24d0	0.010384753
91	0xbe1089d2	-0.14115074
92	0xbda0b750	-0.07847464
93	0xbd946924	-0.072466165
94	0xbd4eba0c	-0.050470397
95	0xbe399987	-0.18124972
96	0xbe1300fc	-0.14355844
97	0xbc9ecb98	-0.01938419
98	0xbcfe60c0	-0.031051993
99	0xbe3dbd6f	-0.18529294
100	0x3d32a54c	0.04361467
101	0x3de39fb8	0.11114448
102	0x3e2e13cc	0.1699974
103	0x3e2fea26	0.17179164
104	0xbe120eec	-0.14263505
105	0xbd85f9f2	-0.06541814
106	0xbdc651e3	-0.096835874
107	0x3d195920	0.03743851
108	0x3d600bd0	0.054698765
109	0x3d3a04ec	0.04541485
110	0x3df44b38	0.11928409
111	0x3ddc8d48	0.10769135
112	0xbde06291	-0.109563
113	0x3e0f7d98	0.14012754
114	0x3e0d001e	0.13769576
115	0x3cdd49e8	0.02701278
116	0xbe35daec	-0.17759293
117	0xbe003300	-0.12519455
118	0x3d68ffc0	0.056884527
119	0x3d908948	0.07057434
120	0x3e42e754	0.19033557
121	0x3dd4c410	0.103889585
122	0x3d9784a4	0.07398346
123	0xbbe42200	-0.006962061
124	0x3e0e86ce	0.13918611
125	0xbd9829ba	-0.07429834
126	0x3daa3700	0.08311272
127	0xbdc71c30	-0.09722173
128	0xbaf9b880	-0.0019052178
129	0x3df71028	0.120636284
130	0x3dbfd21c	0.09366247
131	0xbd3b9f84	-0.045806423
132	0xbb296340	-0.002584651
133	0xbde81245	-0.1133161
134	0x3dc1a370	0.09455001
135	0x3e0ca5d6	0.13735136
136	0x3d8fe6a0	0.0702641
137	0xbe4a4389	-0.19752325
138	0xbe15a142	-0.14612296
139	0x3e0bee88	0.13665211
140	0xbcef6e50	-0.029227406
141	0x3e005dfc	0.12535852
142	0x3e1a128a	0.15046135
143	0xbd74ea28	-0.05979362
144	0xbdf546e3	-0.11976411
145	0xbe44a5ce	-0.19203874
146	0x3d9fe918	0.07808131
147	0x3dd668c8	0.10469204
148	0xbd10f330	-0.03538817
149	0xbe4aecc8	-0.19816887
150	0xbe06a24c	-0.13147849
151	0xbc343250	-0.010998324
152	0x3dbecc34	0.093162924
153	0xbd8c147a	-0.06839843
154	0xbe06efbc	-0.13177389
155	0xbe118446	-0.14210615
156	0x3e3b04e8	0.1826359
157	0x3d976254	0.073918015
158	0xbe29b59a	-0.16573182
159	0xbe011644	-0.1260615
160	0xbe31704e	-0.17327997
161	0x3cf1ef58	0.029533073
162	0xbda9c10d	-0.08288775
163	0xba352400	-0.00069099665
164	0xbd0444b4	-0.032292083
165	0xbe36f77a	-0.17867842
166	0xbe3ac9d8	-0.1824106
167	0xbe221fd4	-0.15832454
168	0xbdaf1508	-0.08548933
169	0x3d020a9c	0.0317484
170	0xbdc498f4	-0.09599486
171	0xbbee6b20	-0.007275954
172	0xbcc84cb0	-0.02445063
173	0x3e3f28f6	0.18667969
174	0xbdbe9320	-0.093054056
175	0x3e446260	0.19178152
176	0xbe2076da	-0.15670338
177	0xbe2e6531	-0.17030789
178	0x3d87f22c	0.066379875
179	0xbdf34d07	-0.11879926
180	0x3dd66d10	0.10470021
181	0xbde74871	-0.11293114
182	0x3e24992e	0.16074058
183	0x3e4a653a	0.19765177
184	0x3c561af0	0.013067946
185	0x3d32b088	0.043625385
186	0x3e42e062	0.19030908
187	0x3df7d31c	0.12100813
188	0xbe367985	-0.17819794
189	0xbbd61d00	-0.006534219
190	0xbe3cae34	-0.18425828
191	0x3e1fab84	0.15592772
192	0xbd1924c8	-0.037388593
193	0xbaba7f00	-0.0014228523
194	0xbe006bf0	-0.12541175
195	0xbde3507e	-0.11099337
196	0x3cd90460	0.026491344
197	0x3e2c7580	0.16841698
198	0xbdd221d5	-0.10260359
199	0x3c9e02c8	0.019288436
200	0x3e3d358a	0.18477455
201	0x3e3b5450	0.18293881
202	0xbd237604	-0.03990747
203	0x3e43e8ca	0.1913177
204	0x3d983d48	0.074335635
205	0x3e3e5eda	0.1859087
206	0x3bc673e0	0.006056294
207	0xbe312562	-0.17299417
208	0xbd639670	-0.05556339
209	0x3d7ac508	0.06122306
210	0x3ddeeee8	0.108854115
211	0xbe503b02	-0.2033501
212	0x3e2296ac	0.1587779
213	0xbe3b8274	-0.18311483
214	0x3df4f120	0.119600534
215	0x3e4e3c6c	0.20140237
216	0x3d4e0ab0	0.05030316
217	0xbd1dcbfc	-0.038524613
218	0x3de62db4	0.11239186
219	0xbd782780	-0.060584545
220	0xbe1ad48c	-0.15120143
221	0xbe145756	-0.14486441
222	0x3dc48ecc	0.09597549
223	0x3e1fa2d0	0.15589452
224	0x3c076c40	0.008265555
225	0xbe4aaaaf	-0.19791673
226	0xbe4d6346	-0.20057401
227	0xbd3ccbc0	-0.04609275
228	0x3de1ab60	0.11019015
229	0xbe0b4ac1	-0.13602735
230	0x3d615c70	0.055019796
231	0xbde47dd8	-0.11156815
232	0x3e2a1074	0.16607839
233	0xbd5b150c	-0.05348687
234	0xbd2e3db0	-0.0425393
235	0xbe375482	-0.17903331
236	0xbe3b3864	-0.1828323
237	0x3c620740	0.013795674
238	0x3d073054	0.033005074
239	0x3de1db54	0.11028162
240	0xbe36c6a2	-0.1784921
241	0x3d12802c	0.035766765
242	0xbcf19020	-0.02948767
243	0x3df53964	0.11973837
244	0xbdbe157d	-0.09281442
245	0x3d791830	0.060814083
246	0x3da875c0	0.08225584
247	0x3dd20018	0.10253924
248	0xbd8f62a6	-0.070012376
249	0x3d868824	0.065689355
250	0xbd23dc00	-0.04000473
251	0x3d612478	0.05496642
252	0xbe00876a	-0.12551656
253	0xbe26177c	-0.16219896
254	0xbe2afa63	-0.16697077
255	0xbe0365ca	-0.12831798

rnn.bias_ih_l2 f4 [24]
0	0x3e1ae694	0.15127021
1	0x3aa2fa00	0.0012434125
2	0x3daa110c	0.08304033
3	0x3de5f1d8	0.11227769
4	0x3d1bcdf0	0.038038194
5	0x3cb1f3b8	0.02172266
6	0xbc74c790	-0.0149401575
7	0xbe310ee9	-0.17290844
8	0x3d06b588	0.032887965
9	0xbd393b3c	-0.045222506
10	0xbe2fb09c	-0.17157215
11	0x3e42be54	0.19017917
12	0xbcb244d8	-0.021761343
13	0xbdd0a42f	-0.101875655
14	0xbe4b7cd4	-0.19871837
15	0xbe408520	-0.18800783
16	0x3d9f3184	0.07773116
17	0xbdbed709	-0.093183585
18	0xbdb495b2	-0.088176146
19	0xbdf1e3f8	-0.1181106
20	0x3e28b996	0.16477045
21	0xbd48fcb4	-0.04906912
22	0x3e077c2e	0.13230965
23	0x3e25f082	0.16205028

rnn.bias_hh_l2 f4 [24]
0	0xbe220e55	-0.1582578
1	0x3e1bf0d0	0.15228581
2	0xbd1fa88c	-0.0389791
3	0x3e483224	0.19550377
4	0x3dd587e4	0.1042631
5	0xbe4a7a24	-0.19773155
6	0x3d1b5404	0.03792192
7	0x3d92f438	0.07175487
8	0xbd97a7da	-0.07405062
9	0x3e1e8122	0.15478948
10	0xbe2d18e9	-0.16904034
11	0xbd84a608	-0.064769804
12	0x3e4729d8	0.19449556
13	0x3e4c2452	0.1993573
14	0x3dd0d4ec	0.101968616
15	0xbdf98d18	-0.121851146
16	0xbe33d801	-0.17562868
17	0xbe29f33f	-0.16596697
18	0xbd510338	-0.05102846
19	0x3decd254	0.115635544
20	0x3d845a80	0.06462574
21	0xbccb1258	-0.02478902
22	0x3e3bfc2e	0.18357918
23	0x3e2423a0	0.16029215
